model/mnist_MLP.pt (torch, 943789 bytes, 6 tensors)

model.1.weight f4 [256, 784]
0	0xbcfa3f2e	-0.030547705
1	0x3cef12e8	0.02918382
2	0xbce53f4e	-0.027984288
3	0x3c79933c	0.015232857
4	0xbca588aa	-0.020206768
5	0xbca1029c	-0.019654565
6	0xbc9b412c	-0.018951975
7	0x3cefea28	0.02928646
8	0xbcf0cdd1	-0.029395016
9	0xbd094d95	-0.033521254
10	0xbcdabb9a	-0.026700784
11	0xbc751b33	-0.014960098
12	0x3d1b02b2	0.037844367
13	0x3c9dae1d	0.019248063
14	0x3cb7caa5	0.022435496
15	0xbcf96fc5	-0.030448804
16	0xbc894103	-0.016754633
17	0x399d96dc	0.00030057773
18	0x3c462113	0.012092846
19	0x3c053920	0.008131295
20	0xbcfb7dc3	-0.030699616
21	0x3c8df2ca	0.017327685
22	0x3bcadcb7	0.006190862
23	0xbc20c9b3	-0.009813714
24	0x3c93ef63	0.018058484
25	0xbc60f13c	-0.01372939
26	0xbd0f5c1b	-0.034999948
27	0xbcffced8	-0.03122656
28	0xbc9f66f7	-0.019458277
29	0x3caebb03	0.021329409
30	0xbcfa93a1	-0.030587973
31	0x3d08b74c	0.03337793
32	0xbc14b466	-0.009076213
33	0x3c13af65	0.009013985
34	0x3d82cda1	0.06386877
35	0x3d500bb2	0.050792404
36	0x3ca91d6e	0.020643916
37	0x3cdecaaf	0.027196256
38	0x3c67c34e	0.014145685
39	0xbc0c3d37	-0.008559517
40	0x3c484a84	0.012224797
41	0x3c5dd764	0.013540123
42	0xbcc2228a	-0.02369811
43	0xbc18c246	-0.009323662
44	0x3cf5df85	0.030013809
45	0x3cd2b19d	0.025719458
46	0x3d9b4c07	0.075828604
47	0x3d509a0f	0.05092817
48	0x3d80ba3f	0.062855236
49	0x3d985536	0.07438128
50	0xbb5b0b59	-0.0033423512
51	0x3d11d944	0.03560759
52	0xbcb3abd1	-0.021932514
53	0x3a2ee4dc	0.0006671676
54	0xbc3ce365	-0.011528824
55	0xb9e4c2dc	-0.0004363273
56	0xb919e36e	-0.00014675941
57	0x3d10cf74	0.035354093
58	0xbcb1abe7	-0.021688415
59	0x3d7c4b24	0.061595097
60	0xbc6feccf	-0.014643862
61	0x3cde4fde	0.027137693
62	0x3d73a2ee	0.059481554
63	0x3d724a30	0.059152782
64	0x3d3fcef4	0.046828225
65	0x3ddef045	0.108856715
66	0x3be890e0	0.0070973486
67	0x3d5bc739	0.05365679
68	0x3dfed009	0.12442023
69	0x3dee696e	0.11641203
70	0x3cb3ae15	0.021933595
71	0x3c965dca	0.018355269
72	0x3e1938fc	0.14963144
73	0x3e0cb672	0.13741472
74	0x3be75655	0.007059852
75	0xbc582eb3	-0.013194728
76	0x3d200089	0.03906301
77	0x3bb71be6	0.0055880425
78	0x3cb0c479	0.02157806
79	0x3d133210	0.035936415
80	0x3d1a8481	0.03772402
81	0xbc30d50c	-0.010792982
82	0xbbaa5fc0	-0.0051994026
83	0x3cc922d3	0.024552738
84	0xbc9fb6d0	-0.019496351
85	0xbbbbca65	-0.0057309144
86	0xbd8a6f89	-0.06759555
87	0x3d139c4c	0.03603773
88	0x3d10cc78	0.035351247
89	0x3d8a18bb	0.06742998
90	0x3e0bc05a	0.13647595
91	0x3e138bf0	0.1440885
92	0x3e1ab8d6	0.15109572
93	0x3cdaf641	0.026728751
94	0x3caa80d8	0.02081339
95	0x3e2b4421	0.16725208
96	0x3e2fb7f5	0.17160018
97	0xbd26c3c8	-0.040714055
98	0xbd68dd22	-0.056851514
99	0xbc19efc9	-0.009395548
100	0x3df15f19	0.117857166
101	0x3d8c4556	0.06849162
102	0xbd002bce	-0.031291775
103	0x3d7e3ca9	0.06206957
104	0x3c842a25	0.016133377
105	0xbc4bb1b8	-0.012432508
106	0xbcbd6f00	-0.023124218
107	0xbda9c69c	-0.08289835
108	0x3b9ed585	0.004847231
109	0xbcae0fde	-0.0212478
110	0x3d8673ef	0.06565081
111	0xb98cc000	-0.00026845932
112	0xbd05d1cb	-0.032670777
113	0xbc8e8d7c	-0.01740145
114	0xbd0f4b7c	-0.034984097
115	0xbd0d8509	-0.0345507
116	0x3d55f9f2	0.05224032
117	0x3df66cba	0.12032457
118	0x3d9b4694	0.07581821
119	0x3dcd9d3a	0.10039754
120	0x3dc74ac0	0.09731054
121	0x3d0883d7	0.033328857
122	0x3da41e87	0.08013635
123	0x3cfc2b30	0.030782312
124	0xbcf09754	-0.029369034
125	0xbcee017e	-0.029053446
126	0xbd34a0f7	-0.04409882
127	0x3c470ccc	0.012149047
128	0x3ddb3286	0.10702996
129	0xbc93fe26	-0.018065523
130	0x3bf32f91	0.007421442
131	0x3d1ea42b	0.03873078
132	0x3d665409	0.056232486
133	0xbd38341e	-0.044971578
134	0xbd23219f	-0.039826985
135	0xbdf674af	-0.120339744
136	0xbcf35de3	-0.029707855
137	0xbbd4d455	-0.0064950385
138	0xbcbd1477	-0.023081047
139	0x3d1c2913	0.03812511
140	0x3d0f4645	0.034979124
141	0xbbc2f3c1	-0.005949468
142	0x3d16c47c	0.036808476
143	0x3d177f9b	0.03698693
144	0x3d65d88a	0.05611471
145	0xbb40b9c4	-0.00294076
146	0xbd0579dc	-0.032586917
147	0xbd57badb	-0.052668434
148	0xbd63e11d	-0.055634607
149	0xbd8e85eb	-0.069591366
150	0x3cab361b	0.020899823
151	0xbc4435cd	-0.011975718
152	0xbdec2038	-0.11529583
153	0xbdc98dd5	-0.098415054
154	0x3c0e8e41	0.008700908
155	0x3d6c555f	0.057698604
156	0x3dd09519	0.10184688
157	0x3d8096c6	0.06278758
158	0x3cd24080	0.025665522
159	0x3d448c2c	0.04798524
160	0x3d27a844	0.040931955
161	0xbd8e10c9	-0.06936795
162	0xbc5ecb56	-0.013598284
163	0x3d023ecd	0.031798173
164	0xbd2cddd6	-0.042203747
165	0x3cce899e	0.025212105
166	0x3d928d84	0.07155898
167	0x3dac7fc8	0.0842281
168	0x3d0ddac8	0.034632474
169	0x3d95dc57	0.07317417
170	0xbc2b3402	-0.010449411
171	0x3cf90e47	0.030402316
172	0x3d7cfe07	0.061765697
173	0xbd59cc2b	-0.053173225
174	0xbd983f27	-0.0743392
175	0xbe0bfd4d	-0.13670845
176	0xbe3a1108	-0.1817056
177	0xbd942917	-0.072344
178	0xbd87b8c1	-0.06627036
179	0xbe102eff	-0.14080428
180	0xbdbeb6e4	-0.09312227
181	0xbdafd33c	-0.08585212
182	0x3b82bffa	0.0039901705
183	0x3d0a8048	0.033813745
184	0x3d8bcca8	0.068261445
185	0xbc9373e3	-0.017999595
186	0xbcdc8ee0	-0.026923597
187	0xbcfba7d9	-0.030719684
188	0xbcc111ee	-0.02356812
189	0xbe185f64	-0.14880139
190	0xbd531a0b	-0.05153851
191	0xbd378afa	-0.044810273
192	0x3d841d7f	0.064509384
193	0x3de75a13	0.11296477
194	0x3da38534	0.07984391
195	0x3df3afbe	0.118987545
196	0xbb857377	-0.0040726024
197	0x3d8455b1	0.06461657
198	0xbc253b51	-0.010084943
199	0x3d5f1a67	0.05446854
200	0x3dd651f9	0.10464854
201	0xbc065f89	-0.008201488
202	0xbdb1ebdb	-0.08687564
203	0xbdaa48ff	-0.08314704
204	0xbdd9a7de	-0.10627721
205	0xbdc0742f	-0.0939716
206	0xbe0f8620	-0.14016008
207	0xbdbb0222	-0.09131266
208	0xbdb458a2	-0.08805968
209	0xbd9819d0	-0.07426798
210	0x3cd81045	0.026374945
211	0x3dbd1fcb	0.0923458
212	0x3d9fd251	0.078037865
213	0x3d58c974	0.052926496
214	0x3c09f4d4	0.008420188
215	0xbd4fa7bc	-0.050697073
216	0xbd5d3b4e	-0.054011635
217	0xbdc61127	-0.0967124
218	0xbdcc20b4	-0.09967175
219	0xbd8edc3a	-0.06975599
220	0xbcc2f256	-0.023797195
221	0x3c59e57c	0.013299342
222	0x3dbd26a2	0.09235884
223	0x3db53fd3	0.08850064
224	0x3d696db9	0.056989405
225	0x3d7c6a65	0.061624903
226	0x3d4fe84f	0.050758656
227	0x3d884cc0	0.06655264
228	0x3db15f00	0.08660698
229	0x3d7e6b14	0.062113836
230	0xbc8e05ed	-0.01733681
231	0xbcfb9f06	-0.030715477
232	0xbe02aa9a	-0.12760392
233	0xbd63627d	-0.055513848
234	0xbd66e534	-0.05637093
235	0xbdc6cfdd	-0.097076155
236	0xbd923b99	-0.071402736
237	0xbd51a851	-0.05118591
238	0x3d2914ff	0.04127979
239	0x3da17498	0.078835666
240	0x3da2b6e3	0.07945039
241	0x3d931ac1	0.07182837
242	0xbd56a5b1	-0.05240411
243	0xbd16af8b	-0.036788505
244	0xbd842688	-0.06452662
245	0xbd820a38	-0.06349605
246	0xbca4db8a	-0.020124216
247	0xbbbce593	-0.005764672
248	0xbdf0862b	-0.117443405
249	0x3d02e58f	0.031957205
250	0x3da8c045	0.082397975
251	0x3da28d22	0.07937075
252	0x3d06421e	0.032777898
253	0x3cb5f3ad	0.02221092
254	0xbc289bde	-0.010291068
255	0x3cb98dc2	0.022650603

model.1.bias f4 [256]
0	0xbc5eded4	-0.013602931
1	0x3d029778	0.031882733
2	0x3d3d84fc	0.046269402
3	0x3d0bd929	0.034142647
4	0x3d9c0f5c	0.07620117
5	0x3d939e55	0.07207934
6	0x3b997b58	0.004683893
7	0x3db2a36f	0.08722579
8	0x3d4568ff	0.048195835
9	0xbc621e4b	-0.013801168
10	0x3c6de259	0.0145192975
11	0xbd87bc89	-0.06627757
12	0x3ce45f71	0.027877541
13	0x3df75417	0.12076586
14	0x3d701e4b	0.05862264
15	0x3d8f2a4e	0.06990491
16	0x3d4ccf4e	0.05000239
17	0x3cc9f09c	0.024650864
18	0x3d47ee50	0.048811257
19	0x3da8ebbf	0.0824809
20	0x3d2d41d4	0.042299107
21	0xbd2d20ae	-0.042267494
22	0x3db6e0f9	0.08929629
23	0x3c0dfaba	0.008665735
24	0x3df1275c	0.11775085
25	0xbca3cdaa	-0.01999553
26	0x3b57c3f6	0.0032923198
27	0x3cb135c7	0.021632088
28	0x3c9561d3	0.018235123
29	0xba916bf5	-0.0011094796
30	0xbd168f76	-0.03675791
31	0x3dcd078c	0.10011205
32	0x3da2d59e	0.079509005
33	0xbdac5815	-0.08415238
34	0x3ccc641c	0.02495008
35	0x3c818951	0.015812548
36	0x39896fa5	0.00026213858
37	0xbdbf3739	-0.09336705
38	0x3d6e40bd	0.058167208
39	0xbd73db76	-0.059535466
40	0x3ced4728	0.028964594
41	0xbcf70a44	-0.030156262
42	0x3e26eb22	0.16300634
43	0x3d1c20c5	0.03811719
44	0xbd9be61a	-0.07612248
45	0x3cffd464	0.031229205
46	0xbcf2b1ba	-0.029625762
47	0xbdaeedcf	-0.08541452
48	0xbcf17532	-0.029474828
49	0xbc388667	-0.011262513
50	0xbc0aeb98	-0.0084790215
51	0xbd011d40	-0.031522036
52	0x3d199aae	0.03750103
53	0xbb539555	-0.0032285054
54	0xbd31bbd3	-0.043392014
55	0x3d74921f	0.059709664
56	0x3d7d4ecc	0.061842725
57	0xbcc8ba3c	-0.024502866
58	0x3c4b8b73	0.012423384
59	0xbda2a4b6	-0.07941572
60	0x3dadca4d	0.084858514
61	0x3dfcfa86	0.12352471
62	0x3b885a44	0.004161151
63	0x3d436ba7	0.047710087
64	0xbce41378	-0.027841315
65	0xbd672f89	-0.056441817
66	0x3d3cab81	0.046061996
67	0x3c73e6ad	0.01488654
68	0x3bce2286	0.0062907366
69	0xbd1e0ee4	-0.03858842
70	0x3d6b7792	0.057487078
71	0xbd60cae5	-0.054880995
72	0xbc0d0db4	-0.008609224
73	0xbc8536ad	-0.016261423
74	0x3d515e3d	0.051115263
75	0x3c46c998	0.012133025
76	0xbd71ad41	-0.05900312
77	0x3d0d3f01	0.034483913
78	0x3c92d90f	0.017925767
79	0xbd30dbf7	-0.043178525
80	0xbc2e7d5b	-0.010650004
81	0xbd7bf020	-0.061508298
82	0x3bb2da2c	0.005458137
83	0xbc9aa095	-0.0188754
84	0x3d72bfeb	0.05926506
85	0x3deb8775	0.11500446
86	0x3de7bd93	0.11315455
87	0xbcc847c8	-0.02444829
88	0xbdb92ce7	-0.090417676
89	0x3bb552f2	0.0055335695
90	0x3c5cc011	0.013473527
91	0x3cd16034	0.025558569
92	0x3e01ed77	0.12688242
93	0x3d4579d6	0.048211895
94	0xbc79cc87	-0.015246517
95	0x3c5e2394	0.013558287
96	0xbd0190f5	-0.031632382
97	0x3dab4a46	0.08363776
98	0xbd0eb7c2	-0.034843214
99	0x3d5d23d5	0.05398925
100	0x3d588ac9	0.05286673
101	0x3d6e3b61	0.058162097
102	0xbcd088ae	-0.025455799
103	0x3d90a606	0.070629165
104	0x3df587c3	0.11988785
105	0x3d6b7af5	0.057490308
106	0x3c8cddee	0.017195668
107	0xbccf9f98	-0.025344655
108	0xbcc892d7	-0.024484081
109	0xbcc1c58a	-0.023653764
110	0xbcc180c1	-0.023620965
111	0xbb6c85f5	-0.0036090587
112	0xbc009aaa	-0.007849375
113	0xbcfb4af4	-0.030675389
114	0xbcd86911	-0.026417287
115	0xbd00db3b	-0.031459074
116	0x3dd13826	0.102157876
117	0xbb9c32e6	-0.0047668098
118	0x3d31de5b	0.043424945
119	0x3d5fe1c7	0.054658677
120	0x3ddddd24	0.10833195
121	0x3e3377c5	0.17526157
122	0xbc573846	-0.013135975
123	0x3d7c02f3	0.06152625
124	0xbd37ce16	-0.044874273
125	0xbd073421	-0.0330087
126	0x3bf20129	0.007385392
127	0x3d4838ad	0.048882175
128	0x3bed02d4	0.007233003
129	0xbd11fbba	-0.035640456
130	0xbd655bee	-0.055995874
131	0xbd1cedaf	-0.03831261
132	0x3db23c72	0.08702935
133	0xbb8228ee	-0.0039721644
134	0xbd4affe8	-0.049560457
135	0xbb69d045	-0.0035677117
136	0x3d3c45ca	0.045964994
137	0x3d6ca245	0.05777194
138	0xbc8e2074	-0.01734946
139	0x3d9c798e	0.07640372
140	0xbcaf9f42	-0.021438245
141	0x3d5daaa9	0.054117832
142	0xbcd89a99	-0.026440905
143	0x3b219d5a	0.002466044
144	0x3ca1d3e1	0.019754352
145	0xbdacc116	-0.08435266
146	0x3d867ba2	0.0656655
147	0x3ceca1a7	0.028885676
148	0x3d7569c9	0.059915338
149	0xbc348bd0	-0.011019662
150	0x3da31585	0.07963089
151	0xbb0d6cea	-0.002157981
152	0xbd417ff9	-0.047241185
153	0x3d838dd1	0.06423534
154	0x3cc95f4f	0.02458158
155	0x3d90976a	0.0706013
156	0xbd5c0d43	-0.053723585
157	0x3d1ec7e3	0.038764846
158	0x3c9eee0a	0.019400615
159	0x3746f2a9	1.1858218e-05
160	0xbe03a060	-0.12854147
161	0xbd20ffde	-0.039306514
162	0xbd5d63af	-0.054050144
163	0x3c2f154e	0.010686232
164	0x3dd2b662	0.10288693
165	0x3cbff3bc	0.023431651
166	0xbcadfcb6	-0.021238666
167	0x3c0c0e1b	0.008548285
168	0x3ca1b908	0.01974155
169	0xbd130197	-0.035890188
170	0xbd881c28	-0.066459954
171	0x3c9d6fcd	0.01921835
172	0x3d4d32e9	0.05009738
173	0x3d9e54ea	0.0773104
174	0x3d02c779	0.031928513
175	0x3da806a9	0.08204395
176	0x3d66dc5a	0.056362487
177	0x3d2ac96d	0.041696
178	0xbd1a46c1	-0.037665132
179	0x3dcb4ae6	0.09926395
180	0x3d24fa9a	0.040278055
181	0xbcb79467	-0.022409631
182	0x3d4cfa5d	0.050043453
183	0xbd957a48	-0.07298714
184	0xbd0b224f	-0.033968266
185	0x3d6762e8	0.05649081
186	0x3cb13e89	0.021636264
187	0xbd0a235f	-0.03372514
188	0x3cd3bf24	0.025847979
189	0xbd1358c3	-0.03597332
190	0x3d16a83e	0.036781542
191	0x3dffe5ae	0.1249498
192	0x3ba0ec00	0.004910946
193	0x3ccf0b6c	0.025274001
194	0x3e207d92	0.15672901
195	0x3d7d25af	0.061803516
196	0xbd07c0e2	-0.03314293
197	0x3dd0e73a	0.10200353
198	0xbd5223c7	-0.05130365
199	0x3d82f8aa	0.06395085
200	0xbd088e84	-0.03333904
201	0x3cada09e	0.021194752
202	0x3b8f9283	0.004381479
203	0x3d5b6ffe	0.0535736
204	0x3c09ac32	0.008402871
205	0x3e25220a	0.16126266
206	0x3cea4321	0.028596463
207	0xbda3b705	-0.079938926
208	0xbceb8ff0	-0.028755158
209	0x3bd874b2	0.006605708
210	0x3d0f5b0c	0.03499894
211	0xbc86c990	-0.016453534
212	0x3dbfc8ce	0.09364472
213	0x3b0a6796	0.002111887
214	0x3da6b3b5	0.08139745
215	0xbd530a40	-0.051523447
216	0x3d2b8033	0.041870307
217	0x3bf1b81c	0.007376684
218	0xbca165f8	-0.019701943
219	0x3e3ddb44	0.18540674
220	0xbcc4a606	-0.024004947
221	0x3d096994	0.033547953
222	0xbdbf6e98	-0.09347266
223	0xbce514ab	-0.027963957
224	0x3d0b3c27	0.033992913
225	0x3d23eb17	0.04001912
226	0x3c6f1539	0.014592462
227	0x3c5e8bdd	0.013583151
228	0x3da8ce24	0.08242443
229	0x3cf0a2b1	0.029374452
230	0x3c318484	0.010834817
231	0xbcdb089a	-0.0267375
232	0x3d5b5759	0.053550098
233	0x3d6d20ca	0.0578926
234	0x3c822881	0.015888454
235	0x3cd91103	0.02649737
236	0x3da5ee65	0.08102111
237	0x3d4eaeea	0.05045978
238	0xbd81a563	-0.06330373
239	0xbd20602a	-0.03915421
240	0xbc620f13	-0.013797539
241	0xbd7d1a01	-0.061792377
242	0x3cba267b	0.022723427
243	0x3df9913a	0.12185903
244	0x3ce9e4a0	0.0285514
245	0x3da5418a	0.08069141
246	0xb9a35a52	-0.00031157077
247	0x3d0519c0	0.03249526
248	0xbc8b5fd4	-0.017013468
249	0x3d1271b0	0.035752952
250	0x3b966cda	0.004590613
251	0x3d634140	0.05548215
252	0x3cd0fb24	0.025510378
253	0x3db9ee5c	0.090786666
254	0x3da77a6e	0.081776485
255	0xba24f602	-0.00062927615

model.3.weight f4 [128, 256]
0	0xbdeb4169	-0.11487085
1	0xbcb51ec9	-0.022109406
2	0x3b9351f2	0.0044958526
3	0x3e10983e	0.14120576
4	0xbe06a168	-0.13147509
5	0x3e919c85	0.28439727
6	0x3c20ae9b	0.009807254
7	0x3d831d41	0.06402064
8	0xbb964eab	-0.0045870147
9	0xbe2d3ee6	-0.16918525
10	0x3db863a9	0.09003384
11	0x3d958a58	0.073017776
12	0xbda073d0	-0.078345895
13	0x3ccef790	0.025264531
14	0x3daf6d8c	0.08565816
15	0x3d079e52	0.03310997
16	0x3bb755c5	0.0055949413
17	0xbdfe9978	-0.124316156
18	0xbe06cf4b	-0.13165013
19	0x3d925b15	0.07146279
20	0x3eba32cb	0.36366877
21	0x3d8cc98f	0.06874382
22	0x3de49b02	0.11162378
23	0x3da9a018	0.082824886
24	0x3dd69de5	0.10479335
25	0x3e01dccd	0.12681885
26	0xbc03e727	-0.0080507165
27	0xbcd10f7a	-0.025520075
28	0xbd994fa1	-0.07485891
29	0xbd216cce	-0.039410405
30	0x3d33ef77	0.043929543
31	0x3e20b25e	0.15693042
32	0x3e2f33d7	0.17109619
33	0x3c39bfcf	0.011337235
34	0x3d2e7fa5	0.0426022
35	0x3d8d52c2	0.069005504
36	0x3d389c8c	0.04507117
37	0xbdc5caeb	-0.09657844
38	0x3c430cf8	0.011904947
39	0xbdfa3a0e	-0.12218104
40	0xbd854dff	-0.06509017
41	0x3ce66809	0.02812578
42	0x3d917eef	0.07104289
43	0x3d8ae493	0.06781878
44	0xbc44bc91	-0.012007848
45	0xbdd1ddf2	-0.10247411
46	0xbda195e3	-0.07889917
47	0xbd6f79c2	-0.058465727
48	0x3d0dafca	0.034591474
49	0xbe20133a	-0.15632334
50	0xbe111b9c	-0.14170688
51	0xbd9fb302	-0.07797815
52	0x3e17776b	0.14791648
53	0x3e2b117c	0.16705889
54	0x3d1447e6	0.03620138
55	0x3dde67f8	0.10859674
56	0xbda5fcf3	-0.08104887
57	0xbe44d1f9	-0.19220723
58	0x3d47c159	0.048768375
59	0xbc71a321	-0.014748366
60	0x3e2e3104	0.17010885
61	0xbc22e356	-0.009941896
62	0xbe29e59a	-0.16591492
63	0x3d646d7c	0.055768475
64	0xbd95f818	-0.07322711
65	0x3d72405a	0.0591434
66	0x3c25ab72	0.0101116765
67	0xbc308a74	-0.010775197
68	0xbdbbd022	-0.091705576
69	0xbdb8943f	-0.09012651
70	0x3dc68118	0.096925914
71	0xb9d32f6c	-0.00040280388
72	0x3bc933df	0.0061402167
73	0x3b9ae2c2	0.0047267387
74	0x3d7b7057	0.061386432
75	0xbabbbbe2	-0.0014322961
76	0xbd34375f	-0.04399812
77	0x3e45ea91	0.19327761
78	0x3e0c8b39	0.13724984
79	0xbcc83ac3	-0.024442082
80	0x3da1895e	0.07887529
81	0x3d28d050	0.041214287
82	0xbdcdd4ba	-0.1005034
83	0x3e4e7bfe	0.20164487
84	0x3db2c9a4	0.08729866
85	0x3cbf281e	0.023334559
86	0x3cae3fae	0.0212706
87	0x3d3813fd	0.044940937
88	0xbd451fed	-0.04812615
89	0x3d3216d9	0.04347882
90	0xbd83ada0	-0.06429601
91	0xbdb90bb0	-0.09035432
92	0x3d48f7fb	0.049064618
93	0x3db9faf7	0.09081071
94	0x3dcf1a4b	0.10112437
95	0xbd8a15e5	-0.06742457
96	0x3e404de1	0.18779708
97	0xbd4d2451	-0.050083462
98	0xbc9bf63c	-0.019038312
99	0xbdbe3490	-0.09287369
100	0xbdd6a5a2	-0.10480811
101	0x3da879f2	0.08226384
102	0x3aea39cb	0.0017870007
103	0x3d975f94	0.07391277
104	0x3cdb391a	0.026760627
105	0x3c968e1c	0.01837831
106	0x3d04c383	0.032413017
107	0xbd6247be	-0.0552442
108	0xbba46232	-0.0050165886
109	0xbdb49669	-0.08817751
110	0xbd701eb5	-0.058623035
111	0x3e03a77a	0.12856856
112	0xbb2b3442	-0.0026123677
113	0xbdb0b8ce	-0.08628999
114	0xbdfc0b8d	-0.12306891
115	0x3bcad493	0.0061898916
116	0xbc257a03	-0.010099891
117	0x3d079a57	0.033106174
118	0x3de0472a	0.109510735
119	0xbc65aafb	-0.014017816
120	0x3d53131b	0.051531892
121	0xbafa166a	-0.0019080166
122	0xbd5264bb	-0.051365595
123	0x3d00b773	0.03142495
124	0xbd01df8c	-0.03170733
125	0xbd6a51ec	-0.057207033
126	0x3cf9caee	0.030492272
127	0xb945ccd6	-0.00018863691
128	0xbd30735f	-0.043078776
129	0x3d18911f	0.037247773
130	0xbd4dffa9	-0.050292645
131	0x3df26605	0.11835865
132	0x3dee5cd8	0.11638802
133	0x3c78196a	0.015142778
134	0xbd50c722	-0.050971158
135	0x3beea4d5	0.007282833
136	0x3e6f3560	0.23360205
137	0xbd2c0c51	-0.042003933
138	0x3cc0de95	0.023543635
139	0x3d00b44b	0.03142194
140	0x3d8bc7c1	0.068252094
141	0xbd426335	-0.047457892
142	0xbc1c1fb7	-0.009529046
143	0x3dcb50da	0.099275306
144	0x3e62e6c8	0.22158349
145	0xbd6a29d9	-0.057168815
146	0x3d8bd209	0.068271704
147	0x3dd9a606	0.106273696
148	0x3cce5071	0.025184842
149	0xbe1818eb	-0.14853255
150	0xbd042357	-0.032260265
151	0xbdbfccaa	-0.093652084
152	0x3c8e9fda	0.017410208
153	0xbd11f52d	-0.03563421
154	0x3da0331e	0.0782225
155	0xbd94f946	-0.07274108
156	0xbd87157f	-0.06595897
157	0x3d0dd483	0.034626495
158	0xbd454ce9	-0.04816905
159	0x3de12a20	0.10994363
160	0xbdcf887b	-0.101334535
161	0x3c610294	0.013733525
162	0x3d66cd9c	0.056348428
163	0xbda3d1c5	-0.07998995
164	0x3dc176ef	0.09446513
165	0x3d87b975	0.0662717
166	0x3cfa6fe3	0.03057093
167	0x3d622dbc	0.055219397
168	0xbd2165c6	-0.0394037
169	0x3d1b0394	0.03784521
170	0xbdcb91fe	-0.09939955
171	0x3b516b9f	0.0031955016
172	0x3c3a17a4	0.011358175
173	0x3e2bbc9f	0.16771172
174	0x3cab502b	0.02091225
175	0x3e2104ca	0.15724483
176	0xbd895ee4	-0.06707552
177	0x3c81cf6a	0.015845973
178	0xbe26198b	-0.16220681
179	0x3cdd354d	0.027002955
180	0xbe08c23e	-0.13355348
181	0x3d60d8e0	0.054894328
182	0xbd4b038b	-0.049563926
183	0xbcc6e368	-0.024278358
184	0xba846c20	-0.0010103025
185	0x3dafef29	0.08590538
186	0xbe08894d	-0.13333626
187	0x3cb54379	0.0221269
188	0xb9907f82	-0.0002756082
189	0xbcb37c27	-0.021909786
190	0xbd4df00d	-0.05027776
191	0xbd1274b1	-0.035755817
192	0xbddb727a	-0.10715194
193	0xbc00c7d4	-0.007860143
194	0xbd67fc8f	-0.056637343
195	0x3d63f290	0.055651248
196	0x3ceac0e2	0.028656427
197	0x3e693bf6	0.2277678
198	0xba8de67f	-0.001082614
199	0xbd924dcb	-0.07143744
200	0xbd4176a4	-0.047232285
201	0xbd162777	-0.03665873
202	0x3dac14b0	0.08402383
203	0x3e11b18f	0.1422789
204	0xbc3ae1a4	-0.011406336
205	0xbd502570	-0.050816953
206	0x3e956f82	0.29186636
207	0xbddb13e5	-0.10697154
208	0x3bfda676	0.007740791
209	0x3ce7f9e4	0.0283174
210	0x3cebbd69	0.028776841
211	0xbcf396ed	-0.029735053
212	0x3e44793c	0.19186872
213	0x3d5e3c25	0.054256577
214	0x3d469312	0.0484801
215	0x3c6f37a3	0.014600667
216	0xbd161fa4	-0.03665127
217	0x3d2d90c4	0.042374387
218	0xbc8a4cbc	-0.016882293
219	0xbc810e1b	-0.015753796
220	0x3d7a200d	0.061065722
221	0x3d00166c	0.031271383
222	0xba52516d	-0.00080229976
223	0x3c1e9ba0	0.009680659
224	0x3d819a49	0.06328256
225	0x3dea6743	0.11445477
226	0xbe332abf	-0.17496775
227	0x3e3e0aca	0.18558803
228	0xbc27b2b9	-0.010235482
229	0xbd44418a	-0.047914065
230	0x3e7505c7	0.23927985
231	0xbe009408	-0.1255647
232	0x3c25cf60	0.010120243
233	0x3d2549aa	0.040353455
234	0xbd6f855c	-0.05847679
235	0xbe0d9ecd	-0.13830109
236	0x3e3b3d70	0.18285155
237	0xbd813685	-0.06309227
238	0x3d06fc79	0.03295562
239	0xbdb4d9e5	-0.088306226
240	0x3dfd584b	0.12370356
241	0xbd3308b0	-0.043709457
242	0xbc6d8d5e	-0.014499037
243	0x3db5d70c	0.088789076
244	0xbd7cf39c	-0.06175576
245	0x3aab8101	0.0013084711
246	0x3e1f341f	0.15547226
247	0x3e97d1bf	0.2965221
248	0xbcaf4356	-0.021394413
249	0x3dcbfc2b	0.099602066
250	0xbd5ae80a	-0.053443946
251	0xbd94a22e	-0.07257496
252	0xbdc94cb9	-0.09829087
253	0xbcfbb688	-0.030726686
254	0x3d57d7c1	0.052695993
255	0x3ba27cf2	0.0049587423

model.3.bias f4 [128]
0	0xbd888609	-0.0666619
1	0x3d8ef44c	0.0698019
2	0x3dc9983a	0.09843488
3	0xbcf055dc	-0.029337816
4	0x3d0c3812	0.03423316
5	0xbd0a6df6	-0.033796273
6	0xbd1fc14e	-0.03900271
7	0xbcf7700d	-0.030204797
8	0x3cd196ea	0.025584657
9	0x3d313d18	0.043271154
10	0x3d75392b	0.059868973
11	0x3dacf689	0.0844546
12	0xbd22fe50	-0.039793313
13	0x3da30de4	0.07961634
14	0x3cf6c960	0.03012532
15	0x3d3e5c59	0.04647479
16	0x3df22ebd	0.11825321
17	0xbc939e8b	-0.018019935
18	0xbb58ff5b	-0.0033111188
19	0x3dd1e35e	0.10248445
20	0x3d4b7aa8	0.04967752
21	0xbd20e7fe	-0.039283745
22	0xbcd7cba4	-0.02634222
23	0x3de33c55	0.11095492
24	0x3c8041d4	0.01565639
25	0xbcc5d347	-0.024148596
26	0x3d3ecb89	0.046580825
27	0x3d8a77ed	0.06761155
28	0x3ce00894	0.02734784
29	0x3d21f0d4	0.039536312
30	0x3b3e2c6f	0.0029018184
31	0x3d44bb80	0.048030376
32	0x3dc2ee9a	0.09518166
33	0x3df77f63	0.12084844
34	0x3d8eefcf	0.069793336
35	0x3dc80a86	0.09767632
36	0x3d7cff88	0.06176713
37	0x3de192f9	0.11014361
38	0x3d4069e0	0.04697597
39	0x3ded4401	0.11585236
40	0x3d7f7520	0.06236756
41	0x3d2de249	0.04245213
42	0x3d7959d1	0.06087667
43	0xbd58080b	-0.052742045
44	0xbcb949c5	-0.022618184
45	0x3d130ee0	0.035902858
46	0xbd054ed9	-0.032545898
47	0x3d098fd8	0.033584446
48	0x3e183042	0.14862159
49	0xbc523895	-0.012830873
50	0x3d481807	0.04885104
51	0x3d2bfd1c	0.04198943
52	0x3d98aa80	0.07454395
53	0xbd3581db	-0.044313293
54	0x3d830062	0.063965574
55	0xbcc4a81b	-0.02400594
56	0x3ddaf2b5	0.10690824
57	0xbceecb0e	-0.029149558
58	0x3c915837	0.01774226
59	0xbd40db60	-0.047084212
60	0x3dae3168	0.08505517
61	0x3d368ed4	0.044569805
62	0x3cfb7f76	0.030700427
63	0xbc982966	-0.018574428
64	0x3cf905da	0.030398298
65	0xbdcd648c	-0.100289434
66	0xbd530128	-0.051514775
67	0x3cd35923	0.02579934
68	0xbc05555d	-0.008138028
69	0x3d41a31b	0.04727469
70	0xbcb11c3d	-0.02161991
71	0x3d8ba398	0.068183124
72	0xbba231e6	-0.004949796
73	0x3d176967	0.036965754
74	0xbb696bfa	-0.0035617338
75	0x3e04af5b	0.12957518
76	0xbdd5b791	-0.10435403
77	0xbccb239a	-0.02479725
78	0x3ddca220	0.107731104
79	0x3dda62a5	0.10663346
80	0x3d81c3a0	0.06336141
81	0xbb845c9d	-0.0040393607
82	0xbd1d4682	-0.03839732
83	0x3d0cba56	0.03435739
84	0x3ce57b7b	0.028012982
85	0x3dc10050	0.09423888
86	0x3d9a2b74	0.07527819
87	0x3cea8ae7	0.028630687
88	0x3b8630db	0.0040951795
89	0x3d2de304	0.042452827
90	0x3d6e9c0d	0.05825429
91	0xbd0c1d25	-0.034207482
92	0xbca3f628	-0.020014837
93	0xbb1c8bb8	-0.002388699
94	0xbc9e520f	-0.019326238
95	0xbc1a2a6c	-0.009409528
96	0x3e01c990	0.12674546
97	0x3d690c46	0.05689647
98	0x3ce0ae7d	0.027426952
99	0x3dd571f4	0.104221255
100	0x3c1285cd	0.008943033
101	0xbd5f0e6a	-0.054457106
102	0x3deb2854	0.11482301
103	0xbd7c7a19	-0.06163988
104	0x3dad4167	0.0845974
105	0x3d7d9d0e	0.061917357
106	0x3d8cb32b	0.06870111
107	0x3db5f0a8	0.08883792
108	0xbd179d38	-0.03701517
109	0x3def8e9e	0.11697124
110	0x3bcc497d	0.0062343464
111	0xbd669c24	-0.05630125
112	0xbc338fda	-0.01095959
113	0x3df7ba4c	0.1209608
114	0x3ceaffa7	0.028686358
115	0x3d8d2ab4	0.068929106
116	0x3de16f4a	0.11007555
117	0x3e03a0f8	0.12854373
118	0x3cd0ee0e	0.025504138
119	0x3d7d2089	0.061798606
120	0xbd48494f	-0.048898038
121	0x3c09d3d6	0.008412322
122	0x3d80f61b	0.06296941
123	0x3c2eb189	0.010662445
124	0xbce9202d	-0.028457725
125	0xbd519cb0	-0.05117482
126	0xbb9e3619	-0.0048282263
127	0x3d299a26	0.041406773

model.6.weight f4 [10, 128]
0	0xbd889b04	-0.06670192
1	0xbe47a9aa	-0.19498315
2	0x3e1334bc	0.14375585
3	0x3b54f53d	0.0032494806
4	0xbe85bd10	-0.26120806
5	0xbc7b419a	-0.015335465
6	0xbdf49713	-0.119428776
7	0xbd5c7b51	-0.05382854
8	0xbe6484e9	-0.22316326
9	0xbe618a55	-0.22025426
10	0x3db36e03	0.087612174
11	0x3d05bffc	0.032653794
12	0x3a02d46c	0.000499076
13	0xbd97876e	-0.07398878
14	0xbe4875ed	-0.19576235
15	0x3cac0c10	0.021001846
16	0xbe90b0a9	-0.2825978
17	0xbe1aac18	-0.15104711
18	0xbd3bd8e0	-0.045861125
19	0xbe034c59	-0.12822093
20	0x3d67d3fd	0.056598652
21	0x3e08393c	0.13303083
22	0xbe12a56a	-0.14320913
23	0x3d0aabb8	0.03385517
24	0xbe195219	-0.14972724
25	0xbe757044	-0.23968607
26	0x3d5e0195	0.054200727
27	0x3d84655c	0.06464645
28	0xbd315713	-0.04329593
29	0xbe02f4be	-0.12788674
30	0xbd6e3825	-0.058159012
31	0x3d93f37c	0.07224175
32	0x3deab0fb	0.114595376
33	0xbe1f215d	-0.15540071
34	0xbe485c22	-0.19566396
35	0x3df8d2fe	0.121496186
36	0x3d85f016	0.065399334
37	0xbe07d91b	-0.13266413
38	0xbd9940b8	-0.07483047
39	0x3d8beb24	0.06831959
40	0xbc9b80a4	-0.018982239
41	0xbe18641d	-0.1488194
42	0xbdff09f1	-0.12453068
43	0xbe982e1b	-0.29722676
44	0x3dfce33c	0.12348029
45	0xbdb1456b	-0.086558186
46	0xbea18dca	-0.3155349
47	0xbd1975bb	-0.037465792
48	0xbe6bf576	-0.23042855
49	0x3cabc2c6	0.020966899
50	0x3c1c3af0	0.009535536
51	0xbe1a5d01	-0.1507454
52	0xbd71b4ca	-0.059010305
53	0x3e4bf979	0.19919385
54	0x3c91ccb7	0.017797811
55	0x3e1c32ae	0.15253708
56	0x3d3b2f92	0.045699663
57	0xbe5cce03	-0.21562962
58	0x3e1a4ed3	0.15069132
59	0xbe483494	-0.19551307
60	0xbe5c7edb	-0.21532767
61	0xbd4d163b	-0.05007003
62	0x3d4da5fa	0.050207116
63	0xbdb41025	-0.08792142
64	0xbe198222	-0.14991048
65	0xbe0a641f	-0.13514756
66	0xbe1f2dad	-0.15544768
67	0x3c418d6e	0.011813505
68	0xbe8ca3c3	-0.2746869
69	0x3c6a06cb	0.014283846
70	0xbd0a5d17	-0.033780184
71	0xbe2a9982	-0.16660121
72	0x3da20d83	0.079127334
73	0xbd872e6e	-0.06600653
74	0xbe5258ff	-0.20541762
75	0xbdff6309	-0.12470061
76	0x3cc54fa8	0.024085835
77	0x3c57ec66	0.01317892
78	0x3d833687	0.06406885
79	0xbe85be10	-0.2612157
80	0xbdf4f5ff	-0.119609825
81	0xbe03f2be	-0.12885568
82	0xbd9ee1da	-0.077579215
83	0x3e1b6645	0.15175731
84	0x3e173832	0.1476753
85	0x3e0d806d	0.13818522
86	0xbd0e1222	-0.03468526
87	0xbe7bee1f	-0.24602555
88	0xbcad3ad7	-0.021146221
89	0xbdb54bbd	-0.088523366
90	0x3d52e1d4	0.051484898
91	0x3e1484b1	0.14503743
92	0x3dfebcea	0.12438376
93	0x38e44be7	0.00010886025
94	0xbb0b9c4c	-0.0021302877
95	0xbe371f17	-0.17882954
96	0x3e06123f	0.13092898
97	0x3e1b2219	0.15149726
98	0x3e1149e1	0.14188339
99	0x3c8cf43e	0.017206308
100	0xbdfb6ed2	-0.12276997
101	0xbc9d962c	-0.019236647
102	0xbe197f78	-0.14990032
103	0x3d0be12b	0.034150284
104	0xbd9719c9	-0.07377965
105	0xbd80bf39	-0.06286473
106	0x3d67649f	0.056492444
107	0xbdbb398a	-0.09141834
108	0x3dd9cead	0.106351234
109	0xbdf42612	-0.11921324
110	0xbdcff21c	-0.101536006
111	0xbcf4bc06	-0.029874813
112	0xbe6b3787	-0.22970401
113	0xbe1b89db	-0.15189306
114	0xbd2d4e19	-0.042310808
115	0x3e00356b	0.12520377
116	0x3de7b948	0.113146365
117	0xbdb95f65	-0.09051398
118	0xbe3a9551	-0.18221022
119	0xbe0588e9	-0.13040508
120	0x3e416ad6	0.18888411
121	0x3d9bab44	0.07601026
122	0x3de4f1cd	0.11178932
123	0x3c60fc46	0.013732022
124	0x3de0267f	0.109448425
125	0x3e638b66	0.22221145
126	0xbe366682	-0.17812541
127	0xbe83c1e7	-0.25733873
128	0x3e096987	0.13419162
129	0x3be5f236	0.007017399
130	0x3dcbb57a	0.09946723
131	0x3dcaee87	0.09908777
132	0x3d983c3f	0.07433366
133	0x3d8e35fc	0.069438905
134	0xbe06c2fe	-0.13160321
135	0xbd89a18c	-0.06720266
136	0x3dc40972	0.09572114
137	0x3d25facf	0.040522393
138	0x3e62afb0	0.22137332
139	0xbdc59765	-0.09648017
140	0xbe2b2f94	-0.16717368
141	0xbe5fa80a	-0.21841446
142	0xbe698e71	-0.22808243
143	0x3d39137b	0.045184594
144	0x3dafb604	0.085796386
145	0xbd26cfd9	-0.040725563
146	0xbee9d7eb	-0.45672545
147	0xbe801e93	-0.25023326
148	0xbd1dedfc	-0.038557038
149	0xbe43dc82	-0.19127086
150	0x3da244fd	0.07923315
151	0xbe326526	-0.17421398
152	0xbdeeb06d	-0.11654744
153	0xbd057d28	-0.03259006
154	0x3c2b1324	0.010441575
155	0x3d787c6e	0.06066554
156	0x3d9da925	0.076982774
157	0xbd4200b8	-0.047363967
158	0xbbec0284	-0.0072024483
159	0xbd82daf5	-0.06389419
160	0xbe3ec3f5	-0.18629439
161	0x3c85d608	0.01633741
162	0x3dd5e175	0.10443393
163	0xbdcf96b7	-0.101361685
164	0xbe719647	-0.23592483
165	0x3dadf713	0.08494391
166	0xbce98f8f	-0.028510837
167	0xbe57cfab	-0.21075313
168	0x3c924c46	0.017858636
169	0xbdbaa636	-0.091137335
170	0xbe87cc10	-0.26522875
171	0xbd2a9c07	-0.041652706
172	0x3d905b66	0.07048683
173	0xbe2b8ac0	-0.16752148
174	0x3deb610c	0.114931196
175	0x3db013bb	0.08597513
176	0xbe0d565b	-0.13802473
177	0xbdcc9e69	-0.09991152
178	0xbd12817e	-0.035768025
179	0xbd22df6b	-0.03976385
180	0xbe0cccb6	-0.13749966
181	0xbda8661a	-0.08222599
182	0x3e03c1aa	0.12866846
183	0x3e21bd80	0.15794945
184	0xbe4b6144	-0.19861323
185	0x3e047f88	0.12939274
186	0xbd3e5731	-0.04646987
187	0x3e494682	0.19655803
188	0xbd14e211	-0.036348406
189	0x3dadb5bc	0.08481929
190	0x3da2060f	0.07911312
191	0xbe557ffa	-0.208496
192	0x3e1a697a	0.15079299
193	0xbd93177b	-0.07182213
194	0x3e33c54b	0.1755573
195	0xbd4e17e9	-0.05031577
196	0x3d9bd188	0.07608324
197	0x3d588efd	0.05287074
198	0xbe0e7e6b	-0.13915412
199	0x3dd026f6	0.10163681
200	0xbe484920	-0.19559145
201	0x3c7a6d7d	0.015284893
202	0xbec55264	-0.38539422
203	0xbe6f5569	-0.23372425
204	0xbcb8b8d8	-0.022549078
205	0xbd9cd5dc	-0.07657978
206	0xbe20aa79	-0.1569003
207	0xbba8482e	-0.0051355576
208	0x3dc1a9eb	0.094562374
209	0x3e3148a0	0.1731286
210	0xbd2ea0b4	-0.042633727
211	0xbe805f7b	-0.25072846
212	0xbd8ac815	-0.06776444
213	0xbd83eb3a	-0.0644135
214	0xbceb841a	-0.028749514
215	0x3e1ca82f	0.15298532
216	0x3df694b9	0.12040085
217	0x3e19cf16	0.15020403
218	0x3df3fa85	0.11913017
219	0x3e1ad038	0.15118492
220	0x3d3973d8	0.045276493
221	0xbca6741c	-0.020319037
222	0x3e535ede	0.20641658
223	0xbddde6bd	-0.108350255
224	0xbd6364de	-0.055516116
225	0xbd200af7	-0.039072957
226	0xbe16d428	-0.14729369
227	0xbe591545	-0.2119952
228	0x3e23f8a2	0.16012815
229	0xbd82645d	-0.06366799
230	0x3d8e2700	0.069410324
231	0xbdabd372	-0.08389939
232	0xbd9c5ed9	-0.07635278
233	0xbd995133	-0.07486191
234	0xbe705403	-0.23469548
235	0xbe4fc44e	-0.20289728
236	0xbdcab118	-0.09897059
237	0x3c07fea4	0.008300457
238	0x3e505153	0.20343523
239	0x3b29d666	0.0025915145
240	0x3d160c1c	0.036632642
241	0xbe1d5403	-0.15364079
242	0xbe68250a	-0.2267038
243	0xbdbf3d1f	-0.0933783
244	0xbdbc9562	-0.0920818
245	0xbe1a9343	-0.15095238
246	0x3e46a525	0.19398935
247	0x3e1c863c	0.15285581
248	0xbd89771a	-0.0671217
249	0xbe135bc6	-0.14390478
250	0xbe1f4011	-0.15551783
251	0x3dc398d5	0.09550635
252	0x3defaad3	0.11702504
253	0xbe630300	-0.22169113
254	0x3e1902f8	0.14942539
255	0x3d826288	0.063664496

model.6.bias f4 [10]
0	0x3c4f2351	0.012642697
1	0xbd3ceccb	-0.04612426
2	0xbc54e0b9	-0.012993031
3	0xbce74139	-0.028229343
4	0x3d53624f	0.051607426
5	0x3dd2ffab	0.10302671
6	0xbdcda934	-0.100420386
7	0xbdc42027	-0.09576445
8	0x3debfc6d	0.11522756
9	0x3d58a2d8	0.052889675
