model/mnist_MLP.pt (torch, 943789 bytes, 6 tensors)

model.1.weight f4 [256, 784]
000000 04 11 04 bd 13 79 b4 bb a3 23 12 bd e5 30 dd bc
       -0.03224279 -0.0055075972 -0.035678517 -0.027000854
000010 e3 47 00 bd 7a e3 0a 3d 0a 12 75 bc e0 f8 87 bc
       -0.031318557 0.033908345 -0.014957914 -0.016598165
000020 a1 68 63 bc e5 1b 87 bc 30 7f 82 3c 4e b8 0b 3d
       -0.013879926 -0.016492793 0.015929788 0.034111314
000030 82 99 b2 3c 16 f5 b9 bc 43 5c 3c bc cf a3 df 3b
       0.021801714 -0.022699874 -0.011496606 0.0068249474
000040 fc 71 f2 bc 21 a9 b4 bc ee 07 33 3c 21 b2 c4 bc
       -0.029595368 -0.022053303 0.010927184 -0.02401072
000050 78 d5 6a 3c ee 4c 95 3b 13 ea 24 3c 81 d2 59 bb
       0.0143331215 0.00455629 0.010065573 -0.0033237042
000060 b7 02 ae ba 9c 60 66 3c 2e b0 5f 3c f7 1f 88 bc
       -0.0013275956 0.014061119 0.013652844 -0.016616805
000070 3e c5 8c bc 3e 8f 06 bd 9c 46 fa bb 40 0b 02 bc
       -0.017183896 -0.03285145 -0.007637812 -0.0079372525
000080 c5 d8 8a 3c cb 16 d3 bc 0a 1f 99 bd 06 da a0 bc
       0.016949067 -0.025767704 -0.07476623 -0.019635212
000090 4d c3 e7 bc 9a 23 22 bb 3c c0 a1 3b 66 3f b5 3c
       -0.028291369 -0.0024740458 0.004936246 0.022124957
0000a0 76 09 78 3b 06 72 30 3d c4 54 a6 bc 43 0e f8 3c
       0.0037847436 0.04307749 -0.020304091 0.030280238
0000b0 52 96 9a 3d de 0a 49 3d b4 83 42 bd 3f 94 a7 bb
       0.075482026 0.04908263 -0.047488883 -0.005114108
0000c0 37 4f 39 bd f7 f7 a6 bd b6 72 81 bc 5c 82 41 3b
       -0.04524156 -0.08152764 -0.015801769 0.0029527163
0000d0 45 84 c3 bc ac a3 07 3d f4 15 0e bd 01 2d fc ba
       -0.023866782 0.033115074 -0.034688905 -0.0019239486
0000e0 21 15 78 bc ca 92 9e bc c0 29 00 bc ed 5a 04 bd
       -0.015141756 -0.019357104 -0.007822454 -0.032313276
0000f0 1f bc c7 3b 53 6c 55 b9 44 a2 c9 bc 3d d4 ca bc
       0.006095424 -0.00020353617 -0.024613507 -0.024759406
000100 25 e9 54 3b 93 05 ec 3c 1b eb 89 bc 27 c6 91 bc
       0.0032487598 0.028811252 -0.01683574 -0.017794682
000110 f5 d4 e4 3c 31 9c 05 bc ea aa 99 3d d5 b6 92 3d
       0.027933577 -0.008154915 0.075033024 0.07163779
000120 7a 58 8b bc 63 57 2a bc 0c 48 45 3d 8f 1e 15 3c
       -0.017009962 -0.010396811 0.048164412 0.009101524
000130 28 08 44 3d f0 be 9d bc 9c e3 69 3c 6b 2e 32 3c
       0.04785934 -0.019256085 0.014275458 0.010875325
000140 b5 d9 f5 3c 36 db fe 3b dc ee 93 bb 2c b9 83 bc
       0.030011037 0.007777597 -0.0045145582 -0.016079508
000150 ce d2 e3 3c 1a 7e ae bc 8a bd 4a 3b 56 a7 93 3b
       0.02781048 -0.021300364 0.0030935728 0.004506032
000160 d4 85 d3 bb 37 e6 fa bc 35 a1 ac bd 1e dc 12 be
       -0.0064551625 -0.030627353 -0.08429185 -0.1434178
000170 51 a7 ac bd 30 96 93 bd 1b 90 08 bd eb a5 29 bd
       -0.084303506 -0.0720638 -0.033340555 -0.041417997
000180 48 e2 41 bd ec 68 3d 3b 1f 9d cb bb 26 10 19 3c
       -0.04733494 0.002890165 -0.0062137987 0.009342229
000190 02 1a ea bc d9 ea 7d 3c 5c 2e 05 3d a8 87 02 3d
       -0.028576855 0.015497887 0.032514915 0.031867653
0001a0 08 2d b3 bc 2b bd 06 3c d6 09 1b 3d 2f 3d 69 3c
       -0.021872059 0.008223812 0.037851177 0.014235779
0001b0 c5 e8 60 3a eb a3 2e 3d 5b b1 4e 3d e8 01 00 bd
       0.0008579607 0.042636793 0.050462108 -0.031251818
0001c0 13 7e 31 bc 5f 5e 5b 3c 61 cc a7 bb 8e 58 a7 bc
       -0.010833281 0.013389199 -0.0051207994 -0.020427968
0001d0 0e f4 35 3d 48 31 a8 3c 2b 75 2f bd dd ec f9 bc
       0.0444222 0.020531312 -0.04283635 -0.030508453
0001e0 fa 1b e1 3b 68 08 a5 bd 46 b2 47 bd 33 fd 6e bd
       0.00686979 -0.08058244 -0.048754 -0.05834694
0001f0 cc 53 6b bd e7 f6 dc bc 24 f2 83 bb e5 7a 45 3c
       -0.05745296 -0.026973201 -0.004026668 0.012053226
000200 06 9b f2 3b f9 57 9e bd 12 8c 93 bd de 60 ba bc
       0.007403734 -0.07731623 -0.07204451 -0.022751268
000210 ef 47 bf 3c 7a f4 78 3b 1a 02 67 bc a4 43 bb bd
       0.02334973 0.0037987516 -0.014099622 -0.09143761
000220 7a 9c 97 bc 1f 53 c8 3d 1a 3e 55 3d 1e b6 09 bd
       -0.018507231 0.09781479 0.052061178 -0.033620946
000230 e7 5a d9 bc 9c 03 11 3d 9c 85 d6 bc 27 6d de bc
       -0.026532603 0.035403833 -0.026186757 -0.027151657
000240 f7 a2 ea bb d8 58 a2 3d 5a ff d5 3d b2 ee bd 3d
       -0.00716054 0.07927102 0.10449095 0.09274043
000250 26 a5 98 3d 53 67 7a 3c 29 b5 c7 bd 22 6e 44 3c
       0.074533746 0.0152834235 -0.097513504 0.011989148
000260 47 fc d7 3c f2 46 71 3b f2 3e a5 bc 6d a3 37 bd
       0.026365412 0.0036815968 -0.020171616 -0.04483359
000270 b8 d0 55 bd 5d 59 64 bd 8c 14 8f bc 02 0d a9 bb
       -0.052201003 -0.055749286 -0.017465852 -0.0051590214
000280 70 ce 34 bd f3 23 2e bb 61 3b 2c 3c 1d 74 dd bc
       -0.044142187 -0.002657172 0.010512204 -0.027032906
000290 73 46 2a 3d c4 2d ee 3d ac a2 85 bc ee 02 de bc
       0.04157109 0.11629823 -0.01631292 -0.027101006
0002a0 85 b7 16 bc d2 62 98 3b 7a 0c cb 3d 3f b4 6a 3d
       -0.009199028 0.004650452 0.09914489 0.057300802
0002b0 99 54 32 3d 34 fa 8f b8 3e 92 17 3d 40 47 1e 3d
       0.04353771 -6.865375e-05 0.0370047 0.038642168
0002c0 ab 63 8c 3d 5c 6b 02 3d 16 33 82 bc 22 f4 69 3d
       0.06854948 0.031840667 -0.0158935 0.05711759
0002d0 25 8d b1 3c 40 32 a6 bc 5b 8d 38 bd e1 6d 98 bc
       0.021673748 -0.020287633 -0.045056682 -0.018607082
0002e0 1e cb f7 3c 53 a8 a6 bb 11 35 12 bc 56 9b 0a bd
       0.030248221 -0.005085984 -0.008923785 -0.033839546
0002f0 c9 bc ad bc 46 cf d4 3c 1f 07 39 3c e7 3a fd 3b
       -0.021208184 0.025977742 0.011293202 0.007727969
000300 e2 89 05 bd 77 e3 79 3c 49 e2 22 3d 37 4d 96 3d
       -0.0326022 0.015251986 0.039766584 0.07338946
000310 4c 8a fd 3c 2b bf 90 3d 4d 06 e0 3d ef a0 b4 3d
       0.030949734 0.070677124 0.10938702 0.08819758
000320 d3 c3 a6 3c dd dc 12 3d cc c5 8b 3d 3d f2 88 3d
       0.020357048 0.035855163 0.06824836 0.06686828
000330 10 fc 21 3c 95 0c 08 3d 91 d6 86 3b d2 d9 ce 3b
       0.009886757 0.033215124 0.004114934 0.0063125873
000340 bc 5f ac 3b e1 a5 4e bd 40 63 b9 bd a6 88 15 bd
       0.005260436 -0.050451163 -0.090521336 -0.03650727
000350 72 ae 45 bc 36 e7 81 3d 06 50 f4 3c cb df 18 3c
       -0.012065517 0.06342928 0.029823314 0.0093307
000360 bb 52 56 3d f9 17 02 3d b8 9f 54 3b 36 9e 1b bc
       0.05232499 0.031761143 0.0032443833 -0.00949817
000370 7e 89 92 bd a3 2d 72 bd 1f a5 8a 3d bc 16 06 3d
       -0.07155131 -0.059125554 0.067697756 0.032736525
000380 a2 61 a5 bd 18 32 d4 3c 6b 5d ff 3c 21 98 0a 3d
       -0.080752626 0.025902793 0.031172475 0.033836488
000390 f7 68 bb 3d 11 93 68 3c 38 64 9b 3d 6f f3 0d 3d
       0.0915088 0.01419522 0.075874746 0.034655984
0003a0 d8 c3 00 3d 08 e4 0a b9 73 8a 80 3d 04 41 17 bd
       0.03143677 -0.00013245654 0.06276407 -0.036927238
0003b0 c5 f8 bc bc 1c 45 f0 bc 4a 93 63 bd 6d d4 e1 3b
       -0.023067841 -0.029329829 -0.055560388 0.006891778
0003c0 b9 b8 87 3c 62 97 b0 bc dc 8b 3f 3d b3 54 46 3d
       0.016567575 -0.02155656 0.04676424 0.04842062
0003d0 c6 fc 62 3d 07 ca ca 3c f6 88 55 3d f3 dc bc 3a
       0.055416845 0.024754537 0.05213257 0.001440911
0003e0 5e 9d ed bd fa 1a 05 be d6 49 79 3c f3 67 eb bc
       -0.11602281 -0.12998572 0.015215358 -0.02873609
0003f0 95 27 23 3d 19 7f c5 3d f2 00 9f bd 0c 90 a0 3d
       0.03983267 0.096433826 -0.07763852 0.07839975

model.1.bias f4 [256]
000000 79 de b4 bd dc 53 99 bc d3 f9 3e 3d db ba d2 bc
       -0.08831496 -0.018716745 0.04662497 -0.025723865
000010 14 3c e1 3d 86 bb 1a 3d 22 9f 46 bc e1 a7 98 bd
       0.10997787 0.037776493 -0.012122901 -0.07453895
000020 09 06 a3 3d 7e c0 0d 3d cd 52 82 3d 4f 83 b0 bc
       0.079601355 0.034607403 0.06363449 -0.021546988
000030 8c 96 17 3d 2b 07 83 3d c7 4b ae bc fd 26 ab bd
       0.037008807 0.063978516 -0.021276368 -0.08357046
000040 a1 71 58 3d cc 64 ee 3d 73 e6 62 3d 05 eb bb 3b
       0.05284274 0.11640319 0.055395555 0.0057348036
000050 c7 fb 05 3d a3 98 a7 3d a3 d6 f2 3c be a2 22 bd
       0.032710817 0.0818341 0.029643362 -0.039705984
000060 ad 84 02 bd a5 fd 46 bd 99 3a cd 3d 42 90 b0 3d
       -0.03186481 -0.048581738 0.10020942 0.08621265
000070 80 8e 41 3d ca 0b a9 bb 5a 29 80 bb 62 a2 1a bd
       0.04725504 -0.005158876 -0.0039111795 -0.037752517
000080 68 42 81 3d b9 99 ab 3c be 2c 65 3c c4 6e 23 3d
       0.06311494 0.020947324 0.013987718 0.039900556
000090 2c d5 e2 3c 8a a8 6f 3d b5 fc a3 3d 3e 35 1d 3e
       0.027689539 0.05851034 0.080071844 0.15352342
0000a0 89 bb 9b 3c 36 5e 1f 3d a5 ba 80 3d c3 10 a4 3c
       0.019010322 0.038908206 0.062855996 0.020027524
0000b0 45 11 cd bc d2 db 64 bc 3d c4 3c bc b3 b0 10 bc
       -0.025032649 -0.013968425 -0.011521396 -0.008831191
0000c0 49 00 c2 bd f6 33 40 3c 59 26 47 3d a1 ee b2 3d
       -0.09472711 0.011731138 0.048620556 0.08736921
0000d0 dd 2d 96 3c 57 4b db 3b 04 04 19 bd 2b 13 51 3d
       0.018332416 0.006692331 -0.037357345 0.05104367
0000e0 64 ba c4 3d 5c c8 b7 3b ab ad 9a 3a d6 3b cb bc
       0.09605864 0.0056086015 0.0011801025 -0.024808805
0000f0 64 e6 ea 3c aa c3 ae 3d d5 66 9c 3d 18 c9 a4 bc
       0.028674312 0.08533414 0.07636801 -0.02011542
000100 31 7b 98 3d cd f1 16 3c 11 a0 8c bd b5 76 ec 3c
       0.07445372 0.009212923 -0.06866468 0.028865198
000110 b7 ec 75 3d ab c6 25 bd 2f 5b 44 bd 61 d6 1c 3d
       0.060040202 -0.040472668 -0.047938522 0.038290385
000120 92 ce 0b 3c 26 a3 c6 3a fe a5 03 bd 6c 4a 32 3e
       0.008533137 0.0015154823 -0.032140724 0.17411202
000130 27 77 28 bc a7 38 40 bd 15 8f 14 3c 56 bc 07 3d
       -0.010282314 -0.046929028 0.009067317 0.033138596
000140 43 1a 20 3e b9 b7 2f 3d fb 4f bb 3c be 54 1f 3d
       0.15635018 0.04289982 0.022865286 0.038899176
000150 14 c8 10 bd df 32 2a bd 25 83 fc bb 4a ee f3 bd
       -0.03534706 -0.04155242 -0.0077060633 -0.119106844
000160 3b f9 a2 3b d7 1b c7 3c c0 3f b2 bc c6 c5 03 3d
       0.0049735582 0.024305267 -0.021758914 0.032171033
000170 34 c6 1e bd 41 ae b0 bb 0f 99 02 bd 7d f8 8a 3d
       -0.03876324 -0.0053918664 -0.03188425 0.06785677
000180 bc 93 24 3c 17 39 1f bd 49 14 13 3a db 4c 02 3d
       0.010044988 -0.038872804 0.00056106277 0.031811576
000190 31 7f 2d 3d 30 5a 0b 3d 58 07 2c 3d 94 b7 83 3d
       0.042357627 0.034021556 0.04199919 0.06431499
0001a0 80 73 67 bc 93 77 5f 3d 2a ed ea 3b 9f df 02 bc
       -0.014126658 0.054557394 0.0071693854 -0.007987886
0001b0 d5 43 24 3c 7b 53 bb 3c ab 4c 6d bc e0 fd 69 bd
       0.010025938 0.022866955 -0.014483611 -0.05712688
0001c0 0f 48 32 3d 96 9c 81 3c bd 20 bf bc ee bc 0a bd
       0.04352575 0.015821736 -0.02333104 -0.033871584
0001d0 2a c3 f5 3c f9 c9 80 bd 1f 01 0a 3d bf 69 1c 3d
       0.030000288 -0.06288523 0.033692475 0.038186785
0001e0 bf 23 1c bb c2 21 8b 3d b5 05 a4 bc 0e c5 1b 3d
       -0.0023825017 0.06793548 -0.020022253 0.038029723
0001f0 3d 8b b1 bc 3f ce 07 bd eb e2 9e 3d b1 2a 7c bd
       -0.02167284 -0.033155676 0.07758125 -0.06156415
000200 af fb f9 bc d7 68 9f bc de 31 59 3d 24 ae e0 3c
       -0.03051552 -0.019459171 0.053026073 0.027426787
000210 ea 2e 44 3d d8 ed 61 3d 22 15 93 bb 8a 37 dc 3c
       0.047896303 0.055158466 -0.004488603 0.026881952
000220 3c 10 0a bd 81 65 ee bc e8 2e 53 bc 7b 79 a0 3d
       -0.03370689 -0.029101135 -0.012889601 0.078356706
000230 a4 78 12 3c ed 76 46 bd 83 96 64 bc d6 f7 97 3b
       0.008939896 -0.04845326 -0.0139519 0.0046376986
000240 5a fd f4 bc 9b e5 1b bd 09 cd f8 bc 11 15 c6 bc
       -0.029905964 -0.038060766 -0.030371206 -0.024179967
000250 d8 2e 97 3d 5b 36 3f bd 38 ea e1 3d 45 11 80 3d
       0.073819816 -0.046682697 0.11031002 0.06253294
000260 6e ce f0 3c 09 e4 b8 3c c3 b9 8c bd 4b 8d d8 bc
       0.029395308 0.022569673 -0.06871369 -0.026434561
000270 26 af 89 3d ce 22 ea 3c 56 d2 18 3d 70 af 02 3e
       0.0672286 0.02858105 0.037309967 0.12762237
000280 56 a2 ee 3d 96 52 67 3d 5b 74 a1 3c 41 12 6e bd
       0.11652057 0.056475244 0.019708803 -0.058122877
000290 e1 d4 bc bc 11 6f af 3d b0 bb 4e 3d b6 ef dc 3d
       -0.023050727 0.08566106 0.05047196 0.10787909
0002a0 bc e3 39 3d 38 d3 56 3c 78 a2 6f 3d f9 f2 fd 3c
       0.0453832 0.013111882 0.05850455 0.030999647
0002b0 57 87 5e 3d 9f 1f 38 3d e0 bb e3 bb a6 79 93 3c
       0.05432829 0.04495203 -0.0069498867 0.018002342
0002c0 0b 9c cb bd de dd 97 3b 46 c2 7b 3d 1d 3c e7 bc
       -0.09941872 0.004634603 0.06146457 -0.028226906
0002d0 02 68 b1 3b 39 d8 b4 3c 6e c1 32 bd f7 5c b8 3d
       0.00541401 0.02207576 -0.0436415 0.09002107
0002e0 ca 7e db bc 9e c9 00 bd ec 4c b6 3c 9f 27 d1 bc
       -0.026793856 -0.031442277 0.022253476 -0.025531588
0002f0 44 4f 51 bd 75 a4 ba 3c 1c 59 12 3d d3 c3 5e 3d
       -0.051100984 0.022783497 0.035729513 0.05438597
000300 c1 65 1a 3e d9 85 5e bd 7a ae 2e bd 62 b8 20 bc
       0.15077879 -0.054326866 -0.042646863 -0.009809585
000310 fe fd 7e 3d 6f 6a 12 bd 90 47 c8 3d 89 8d 39 3d
       0.062253945 -0.035746034 0.097792745 0.045300994
000320 fa 87 4a bc a5 35 b0 3b d5 a3 43 3d 7c 53 8b 3d
       -0.012361521 0.0053774887 0.047763664 0.06803033
000330 67 f2 3a bc 60 5f 95 3d 4f ab 0b 3d 31 e3 42 bd
       -0.011410332 0.07293582 0.03409892 -0.047579948
000340 68 26 3c 3d b4 3e 8c 3d e6 b5 9b 3b bd da c4 3c
       0.045935065 0.06847897 0.0047519086 0.024030084
000350 85 d8 c9 bb 73 2d 85 3b c0 be 8a 3d 4f 9c 1c bd
       -0.0061598443 0.004064256 0.06774664 -0.038235005
000360 cb bb f8 3d a6 48 dc 3d ec 9a ac 3c 45 a4 fb bc
       0.12145194 0.10756044 0.021069966 -0.030717978
000370 29 3d 44 3c f7 ce 93 3d 55 ca 6b 3d b6 6d 17 bd
       0.011977472 0.0721721 0.057566006 -0.036969863
000380 45 a5 86 bc 2f c1 8f 3d 23 08 55 3c 1d 6c a6 bd
       -0.016436229 0.07019269 0.013002428 -0.0812609
000390 79 30 a3 3d 08 a6 0d b9 1b 98 9d bd 89 d2 dd bd
       0.0796823 -0.0001350866 -0.076950274 -0.10831172
0003a0 9d 00 8a 3d 02 bf b7 3d e5 b9 0c 3e 1b 2c 2a bd
       0.06738398 0.08971979 0.13742788 -0.04154597
0003b0 97 80 52 3d 6d 57 3c 3d be 16 d9 3c 6b df aa bc
       0.051392164 0.045981813 0.026500102 -0.020858487
0003c0 d3 f3 6c bd b9 4e 44 3a 42 14 c2 3c 9b 28 19 3b
       -0.057849716 0.0007488537 0.0236913 0.002337015
0003d0 91 ba 30 3d b6 79 28 3c 18 75 1b 3c 40 80 1f bd
       0.043146674 0.010282924 0.009488367 -0.038940668
0003e0 89 25 85 3c 70 de 5b 3d 86 08 98 3d 2c 6e 70 3d
       0.01625325 0.05367893 0.07423501 0.058698818
0003f0 cc 9b ee 3d 88 d9 24 3d 2c ab db 3c f8 8c 25 bd
       0.1165081 0.040246516 0.02681502 -0.04041764

model.3.weight f4 [128, 256]
000000 71 6a 9f bd ed 81 ac 3c 2f 2e 37 3e cd 0e 09 be
       -0.07783974 0.021058047 0.17888711 -0.13384552
000010 ea c0 df bd ce 89 3e bd 13 d6 3c 3d cf ba 84 bd
       -0.10925467 -0.04651814 0.046102595 -0.064809434
000020 d4 f1 15 bb df 1d 4e 3d 2a 30 7a 3d 11 6c 0a 3c
       -0.0022879736 0.050321456 0.06108109 0.008448617
000030 e7 86 03 be 45 e5 79 bd a8 cc 7b 3d e2 e0 ad 3c
       -0.1284443 -0.061009664 0.061474472 0.021225397
000040 82 b3 a0 3d af d9 c6 3d e6 c5 5b 3e 68 5f 5c bb
       0.078467384 0.097094886 0.21462211 -0.0033626202
000050 55 85 a2 3d 46 47 52 3d 30 37 55 3d 4d fb 94 3d
       0.07935587 0.051337503 0.052054584 0.07274494
000060 11 27 ec 3c 2c c9 04 be 63 21 52 3d 9b 4d 22 3c
       0.028827222 -0.12967366 0.05130137 0.009906198
000070 4c 3b 00 bc 96 1a 64 3d 41 1d 01 3e 97 6d 80 bc
       -0.0078266375 0.055689417 0.12608816 -0.015677257
000080 17 c0 3b 3d 98 7f 49 3d 42 e0 c9 bd 55 de 97 bc
       0.045837488 0.04919395 -0.09857227 -0.018538633
000090 70 04 b5 bd 1c 45 18 3d 57 f8 01 3e ba d1 26 be
       -0.08838737 0.037175283 0.1269239 -0.16290942
0000a0 6c 11 4e 3d 4a 55 be bb 99 e4 68 bd ca bd fb 3d
       0.050309584 -0.005808507 -0.056858633 0.12292059
0000b0 c1 3a c7 bd cb c7 4f bd a9 36 c9 bd 00 05 43 bd
       -0.09728003 -0.050727647 -0.09824879 -0.04761219
0000c0 71 97 47 bb 0b ed 89 bd dc 1a cd 3d 3b 09 13 3e
       -0.0030455256 -0.067346655 0.10014889 0.1435899
0000d0 90 42 5d 3d c9 37 22 3d ec 42 f6 3c 86 e7 62 bb
       0.054018557 0.039603982 0.030061208 -0.0034622862
0000e0 07 7a 9a 3d 2a 0e b9 bd 70 f9 95 3d 98 0d 16 3e
       0.07542806 -0.09035905 0.07322967 0.14653623
0000f0 f6 49 22 3e 11 36 8e bd 19 1d d9 3d cc d3 83 bd
       0.15848526 -0.06943906 0.10601253 -0.064368814
000100 86 dc 80 3d c2 d9 be 3d c7 64 6b bd 81 5a 31 bc
       0.062920615 0.09318878 -0.057469156 -0.0108248005
000110 10 ea 99 3d e8 3d 12 3d 2d 82 c7 3b 44 9e 85 bc
       0.07515347 0.03570357 0.006088516 -0.016310818
000120 cf e2 ea bc c3 7a 86 3d 0c 33 51 bd 22 6e 6b 3e
       -0.028672604 0.06566384 -0.051074073 0.22991231
000130 ad 09 eb bd df 7c 92 3c e6 4c 01 be 36 e3 d9 3d
       -0.11476455 0.017881809 -0.1262699 0.1063904
000140 f1 56 ba 3a 77 ff 49 bd 82 d0 03 3d 28 d9 44 bd
       0.0014216584 -0.049315896 0.03218127 -0.04805866
000150 b0 b2 a0 3d c5 89 9f 3c ed f8 bc bc ee 81 ab bd
       0.07846582 0.019474873 -0.023067916 -0.083743915
000160 31 09 4e 3e 7d fa 1f 3e 8d 70 cf bb fc 23 d0 bc
       0.20120694 0.15622897 -0.006330556 -0.025407784
000170 32 79 cd bc 79 92 53 be 3d 20 8c bc e5 3e 9c bd
       -0.025082204 -0.20661344 -0.017105216 -0.07629184
000180 0e c6 d7 3d cb 8b c1 bd c5 44 f8 3d 20 f3 f8 bd
       0.10535823 -0.094504915 0.12122492 -0.121557474
000190 08 98 76 3d 8f be 44 3d c4 03 33 3e 13 84 14 3e
       0.060203582 0.048033293 0.17481905 0.14503507
0001a0 85 d4 8a bd ce 7e 6d bd e1 a8 8e bd cd 52 bd 3c
       -0.06778816 -0.05798226 -0.06965805 0.023110772
0001b0 aa 0d 62 bd 76 3e a5 bd 71 92 5b 3d 80 fe 19 bc
       -0.055188812 -0.08068554 0.053606454 -0.009399056
0001c0 f1 e6 d5 3d 3e 39 3d 3d 39 da 99 bd 0a 72 7a 3c
       0.10444439 0.04619717 -0.07512326 0.015285978
0001d0 38 f3 0a be 79 fb 1b 3d 59 42 04 3e 5d 7c 5e 3d
       -0.13569343 0.03808162 0.12915935 0.05431782
0001e0 43 8c 8d 3b bf 08 32 3d 98 e5 9f bd 42 c4 a8 3b
       0.004319699 0.043465372 -0.078074634 0.005150349
0001f0 cc 5d 47 bd 38 ff 6a bd f8 b3 08 bd 98 31 2e bd
       -0.048673436 -0.0573723 -0.033374757 -0.042527765
000200 94 eb 24 bc 72 58 e1 bd 66 7a c4 3d b9 21 24 3e
       -0.010065932 -0.11003198 0.09593658 0.16028489
000210 86 c5 90 bd 72 a6 d6 3d 53 80 68 3b 65 4d b8 3d
       -0.070689246 0.10480966 0.0035476878 0.08999137
000220 42 66 22 be b5 24 1f 3d 81 45 4f 3d f6 f3 7a bd
       -0.15859321 0.038853366 0.050603393 -0.061267816
000230 df b8 4f 3c 2b 71 27 3c 36 17 c3 3c 26 5b 11 bd
       0.012678354 0.010219852 0.023814779 -0.035487317
000240 ce 30 d2 bd 79 4b b6 3d 09 b7 a6 bd 29 21 8e bd
       -0.10263215 0.08901114 -0.0814038 -0.069399185
000250 a1 a8 b1 3c d0 f1 98 3c 4b aa b5 3d 2f 0d 11 bd
       0.021686854 0.018669993 0.088703714 -0.035412963
000260 9d 77 c0 bd 2a 74 32 3d 4c 7c e7 bb 9c dc fb 3d
       -0.093978144 0.043567814 -0.007064378 0.12297937
000270 dd b6 88 3c 6e 67 8a 3d 60 2f e5 bb f8 09 b8 3d
       0.016688759 0.06758009 -0.006994173 0.089862764
000280 e7 b1 10 3b 3d 38 f6 3c 58 72 1b be 5c e6 30 bd
       0.0022078694 0.030056113 -0.15180337 -0.043188438
000290 68 b2 47 bc 46 7c ac bd 6e f2 a4 3b 78 8b b7 bc
       -0.012188531 -0.08422141 0.0050337827 -0.022405371
0002a0 4f eb 36 3d 85 46 e8 ba c1 4c 4c 3d 4b 3a 0c 3c
       0.044658 -0.0017721212 0.049877886 0.00855882
0002b0 ce bd 90 3e c7 9d b5 bd fe 55 52 bd c8 12 63 3c
       0.2826981 -0.08867984 -0.05135154 0.013859458
0002c0 5b 98 16 3d 0e 17 ad 3d ba ad 33 3c b8 6e 6a bd
       0.03676639 0.08451663 0.010966713 -0.057234496
0002d0 53 ba 05 3d 1b 1e ac bc a4 1d 1e 3d 0a 21 15 3d
       0.032648396 -0.02101045 0.038602486 0.03640846
0002e0 da 24 bc bc b0 dc 80 bd 8a 01 41 bd 89 34 67 3d
       -0.022966791 -0.06292093 -0.04712061 0.056446586
0002f0 05 f6 2a be 33 1e be bd 65 94 5c 3d bd 29 27 3d
       -0.16695412 -0.09283104 0.053852458 0.04081129
000300 7c 7a 48 3d 55 12 ed 3c 84 2c 90 bd 54 82 8b bc
       0.048944935 0.028939405 -0.07039741 -0.017029919
000310 03 ee 10 be 40 b2 ac bd f8 8a 61 3d 04 96 b8 3d
       -0.14153294 -0.08432436 0.05506417 0.09012988
000320 f5 0b 1b bd af e0 da bd 7b e4 96 bd 51 70 b6 bd
       -0.0378532 -0.10687386 -0.07367798 -0.089081414
000330 e0 cb 59 bd 1b 1f db 3d fe 94 eb bd 5c c0 68 3d
       -0.053172946 0.10699292 -0.115030274 0.056824073
000340 24 db 88 3c 7f 17 0e bd e8 1e 16 3e 50 de 52 3d
       0.016706057 -0.034690376 0.14660227 0.051481545
000350 99 e2 3e bc 86 e9 18 bd 02 c0 19 3d 16 80 56 bc
       -0.011650705 -0.03733208 0.03753663 -0.0130920615
000360 76 d9 16 be 7f df b8 3c b5 42 00 3e b0 50 1e be
       -0.14731392 0.022567509 0.12525447 -0.15460467
000370 e1 cb cd 3d 8b 39 27 bc 33 3b 2a 3a 6c b1 b1 3d
       0.100486524 -0.01020659 0.0006493807 0.08676419
000380 5d c8 cc bc fe ac 2a 3a 88 55 08 be b6 c4 22 be
       -0.024997884 0.0006510763 -0.13313878 -0.15895352
000390 cc eb 3d 3e 99 87 13 bd 8e 41 2c bd e2 ff 91 bd
       0.1854698 -0.036017988 -0.042054705 -0.07128884
0003a0 c3 e7 a9 3d 02 26 26 be f8 cd 3e 3e 0c 18 4d bc
       0.08296158 -0.16225436 0.18633258 -0.01251794
0003b0 2c 56 f9 bc 87 b4 05 be 83 e9 8d bd 0c d3 d7 3d
       -0.030436598 -0.13057147 -0.069293045 0.10538301
0003c0 03 0c 7f bd bd ef 18 bd 2e 5a 5d bd c4 63 8e bd
       -0.062267315 -0.037338007 -0.05404108 -0.069526225
0003d0 42 5c 36 3e 2d 03 83 bd 87 30 7e bc ff 83 89 bc
       0.17808631 -0.0639709 -0.0155144995 -0.016786573
0003e0 c7 3f 71 bd 6f ee d8 bd 61 92 65 bc 9d 17 e6 3d
       -0.058898713 -0.105923526 -0.01401195 0.112349726
0003f0 7d 28 90 bd 51 1e 57 bd be 15 01 3d 85 5b 24 3d
       -0.070389725 -0.052519146 0.031514876 0.040126342

model.3.bias f4 [128]
000000 b2 af c8 3d 2a 40 be bd 4e fd f5 3d be 33 93 3d
       0.09799136 -0.09289582 0.12011205 0.071876034
000010 c2 d2 1e bc bd eb bd 3d a6 98 9d bb e9 dc 9f 3c
       -0.009693803 0.09273479 -0.004809457 0.019514518
000020 d8 3f b1 3d a4 52 b8 3c c6 b6 9c 3c 9a a0 92 bb
       0.08654755 0.022500344 0.019130122 -0.0044747116
000030 83 37 09 3d e3 56 01 bd 32 07 47 3d ec 03 71 bc
       0.033500206 -0.031577002 0.048590846 -0.014710408
000040 c3 c7 f3 3d 31 e0 0c 3d 51 88 7b 3d 31 25 47 bd
       0.11903336 0.034393493 0.0614093 -0.048619453
000050 93 cc 5a bb 34 48 07 3d fd 5a 97 3c 9a 35 74 3d
       -0.0033386096 0.033027843 0.018476004 0.05962143
000060 a2 48 92 3d 24 0b 17 3d dd 8e f7 3d b5 d2 80 3d
       0.0714276 0.03687586 0.12087796 0.06290189
000070 18 de 06 bc 91 f8 14 3d af 6b ac bc db 33 8e 3d
       -0.008231662 0.036369864 -0.021047441 0.069434844
000080 f1 f3 6c bc e8 2a 8f 3c 07 d7 93 bd af fa 69 3d
       -0.014462457 0.017476514 -0.072187476 0.057123836
000090 b2 88 f2 bb 9a 86 f4 3d a8 07 cb 3d b5 51 c4 3d
       -0.0074015493 0.11939736 0.0991357 0.09585897
0000a0 67 ec 10 3e 8d 67 b6 3c 10 e8 f9 3b 74 7c 78 3d
       0.1415268 0.022266174 0.007626541 0.060665563
0000b0 ac 1f 83 3d 77 69 8a bd 38 35 d2 3b 5f 46 48 bd
       0.06402525 -0.06758397 0.0064150356 -0.048895236
0000c0 6b e5 04 3c 82 7e 32 bd a6 71 64 3d 01 40 f0 3c
       0.008111338 -0.04357768 0.055772446 0.029327394
0000d0 3f e1 57 3c e5 78 35 3d 94 d5 ab 3d cc 56 df bc
       0.013176261 0.044304747 0.08390346 -0.027263068
0000e0 be c3 58 bd be 78 44 3d af 10 9d 3d 61 44 29 3e
       -0.05292105 0.04796671 0.07669198 0.1652999
0000f0 fa 7d 6c bd 81 d0 2c 3b d7 36 97 3d 13 b3 dd 3d
       -0.057737328 0.0026369395 0.07383507 0.10825171
000100 f0 5c d9 bc bc ac c8 bc ee 36 67 3d e7 b4 25 bc
       -0.026533574 -0.024496429 0.05644887 -0.010113931
000110 b8 cf bc 3d 5f 2d a4 3d 52 ca 11 bb 13 4c 29 3d
       0.09219307 0.08016466 -0.0022245836 0.041332316
000120 0a aa 96 bd 95 91 91 3d 36 15 4a 3d a0 9c 2c bd
       -0.07356651 0.07107846 0.049336635 -0.042141557
000130 1a ba 06 bd 22 1f a8 3d 27 ec a1 bc ea 0b 3b bd
       -0.032892324 0.08209063 -0.019765927 -0.04566566
000140 4e 6d 51 3c 63 7b 00 3e 57 c2 4a bd e7 1a 6a bd
       0.012782408 0.12547068 -0.049501743 -0.057154562
000150 f2 89 b0 3d 61 c6 0e 3c a1 55 95 39 6d c4 a6 3d
       0.08620061 0.008714289 0.00028483293 0.08142934
000160 3d 99 20 3d 35 1c 95 3c 10 9e 72 bd ba 79 76 3d
       0.03920864 0.018201927 -0.05923277 0.06017468
000170 04 6f 9d bc b1 c3 e6 3c 30 a4 8f 3d 7e 74 68 bd
       -0.019217975 0.028169485 0.07013738 -0.05675172
000180 51 9b 11 3d d2 58 c3 bd 4d e9 be 3d 69 d8 ec 3d
       0.035548512 -0.095384255 0.09321842 0.115647145
000190 3b 4e ae bc 16 f7 ca 3c b2 7f b0 38 ee 2a af 3c
       -0.021277538 0.024776023 8.416119e-05 0.021382775
0001a0 b0 6a 2a bd 5e 25 ca 3c 6c 82 f9 3d b1 c9 45 3d
       -0.04160565 0.024676021 0.12183079 0.04828805
0001b0 34 08 8f 3d c9 0d 59 bc 8a 7e 4e bd 46 02 cc 3d
       0.069839865 -0.013247916 -0.050413646 0.09961371
0001c0 be ba f6 3d 17 97 3e 3c a5 56 ca 3d 91 e7 fa 3d
       0.12047337 0.011632702 0.098798074 0.12251199
0001d0 e0 7c e0 3c a7 63 fd bc eb a0 24 3d 6a 14 16 3c
       0.027403295 -0.030931307 0.040192526 0.0091601405
0001e0 9b 0a 36 bd 48 41 04 3e bb 38 4f 3d 4b 7a 5d bb
       -0.044443708 0.12915528 0.05059121 -0.0033794816
0001f0 92 c2 a4 bd f1 dd 95 bd 92 82 9b 3d 5c 0e 98 3c
       -0.08044924 -0.073177226 0.07593264 0.018561535

model.6.weight f4 [10, 128]
000000 0e 0f 0d be d1 22 26 bd a9 27 8b be f3 bf cf bd
       -0.13775274 -0.040560547 -0.27178696 -0.10144033
000010 32 1a 2b be 2b 7d 7c 3d e2 12 28 be 0e e9 19 3e
       -0.16709211 0.061642807 -0.16413453 0.1503031
000020 b7 43 0a 3e c0 56 6c 3d 25 ef 27 bc 1c 11 af bd
       0.13502394 0.05769992 -0.010249888 -0.08548185
000030 0d a4 35 3e 1e 45 69 3d 4c 1a 93 be 71 33 fc bd
       0.17738362 0.05695068 -0.28731 -0.12314499
000040 cb fe 6f bd 60 de e3 3d ba 43 83 3c a5 c2 1d bc
       -0.0585926 0.11126399 0.016023505 -0.009628926
000050 18 c7 ab 3d 58 19 90 be 21 c9 fa bc 33 f5 e1 3b
       0.083875835 -0.28144336 -0.030613484 0.006895685
000060 5d 99 74 bd fc 7e c7 bd e0 34 88 be 8c 3c 0e be
       -0.05971657 -0.09741017 -0.2660284 -0.13890284
000070 67 51 f6 3d 45 e0 9b bd 6f 33 47 3d 33 c4 c5 3d
       0.12027245 -0.076111354 0.048633035 0.09656563
000080 09 85 42 bd 39 8f 4e 3d a0 80 24 bd 98 d6 95 bd
       -0.047490153 0.050429557 -0.04016173 -0.07316321
000090 6a 72 5d 3c 29 e7 e0 bd f5 ae 57 be 48 e8 97 bd
       0.013516048 -0.1098159 -0.21062835 -0.07417351
0000a0 16 53 50 bd 68 2b 55 3d 34 5d 3e 3d 7b 49 a8 bc
       -0.050860487 0.05204335 0.046475604 -0.02054285
0000b0 f9 54 15 be 46 38 a3 be e5 2c bf bd 4d cf 19 be
       -0.14583196 -0.3187887 -0.09334735 -0.15020485
0000c0 df 51 4f 3d e8 eb 7c bd 2c 20 70 3c 74 e9 15 3e
       0.050615188 -0.061748415 0.014656108 0.14639837
0000d0 6b 80 a5 3d 08 bd da 3d 27 38 c9 3d 8e a1 e1 bc
       0.080811344 0.10680586 0.09825163 -0.027542856
0000e0 66 57 2e 3e 12 38 66 3c f4 e1 c6 3d dd 06 78 bd
       0.17025527 0.014051454 0.09711066 -0.06055342
0000f0 1a e6 8b bd f9 d2 be bd b9 d7 b7 3d 8d 8a 68 be
       -0.06830998 -0.093175836 0.08976693 -0.22709103
000100 f2 1c 81 bc 28 ba bd 3c f0 48 9c be d9 55 55 be
       -0.015760873 0.023160055 -0.30524397 -0.2083353
000110 e7 ed 11 be 51 af 4b be 1c 1d 0d 3e ea 5e 73 3d
       -0.14250909 -0.19891097 0.13780636 0.05941669
000120 e3 39 09 3e d1 83 99 3d e4 7a 12 3e 63 e2 e4 bc
       0.13400988 0.07495845 0.14304692 -0.02793998
000130 b1 35 db 3d 67 2c c0 3d 9f 7b b8 3c 40 67 53 be
       0.107036 0.09383469 0.022519885 -0.20644855
000140 f4 3d be bc 9e d3 b4 bd e6 29 5c be 2a f1 b4 3d
       -0.0232229 -0.08829425 -0.21500358 0.08835061
000150 d4 be cb bc 92 e2 22 3e 8f bc b4 3d 63 8a 35 be
       -0.024871267 0.15906742 0.08825027 -0.17728572
000160 09 9d 06 be d5 02 0e be e9 62 6c 3d f1 27 04 3e
       -0.13145842 -0.13868268 0.057711516 0.12905861
000170 dc f4 c9 3d 5e 80 d1 3d 72 f8 4e be f2 d4 93 3d
       0.09861156 0.10229562 -0.20211962 0.072183505
000180 35 1c 26 3d 99 5a 43 3e f7 00 1a be 0c de e0 3d
       0.040554244 0.19077529 -0.1503943 0.10979852
000190 05 55 42 be 72 b6 03 3e b0 e3 1a 3e 7e 24 84 be
       -0.18977745 0.12862566 0.15125918 -0.2580909
0001a0 46 15 48 bd aa d9 ca bd 30 ce ff bc 34 5a 36 be
       -0.048848413 -0.099047974 -0.031226248 -0.17807847
0001b0 e6 61 37 be e7 07 a9 3d 8d 47 1e bd a4 6f 28 3d
       -0.17908439 0.082534604 -0.038642455 0.041122094
0001c0 22 4d 26 be 79 1b 7b be 03 69 38 be 29 90 1a be
       -0.16240361 -0.24522199 -0.18008809 -0.15094055
0001d0 e9 2c 98 be 88 4c 0d 3e 2d 4e 8e bd cc f6 0b be
       -0.29721764 0.13798726 -0.069485046 -0.13668364
0001e0 34 96 11 3e 35 1d fa bd ab d3 d2 3d 4c e5 8e 3d
       0.14217454 -0.12212602 0.10294279 0.06977329
0001f0 09 d3 88 bd 41 d9 49 3d 86 d1 b2 be 0e cb 4f be
       -0.06680877 0.049279455 -0.3492548 -0.20292303
000200 17 f7 54 be 34 b9 25 be be 19 cc 3d 7b 60 76 3d
       -0.20797382 -0.1618393 0.099658474 0.060150605
000210 5b b6 e1 3d d9 5d ab bd 00 5d d0 3d fe 3a b4 bb
       0.1102111 -0.083675094 0.10173988 -0.0055001965
000220 a3 c9 40 bd 01 4b f6 bb 50 8e e8 3d 01 e2 8a 3d
       -0.047067296 -0.0075162654 0.11355269 0.06781388
000230 75 5c e7 3d cb 7d 26 be 6b e4 d0 3d a8 4c d2 bd
       0.11296932 -0.16258924 0.10199817 -0.10268527
000240 b9 6f d9 bd 51 24 db bd 94 8e a1 bd 25 b3 46 be
       -0.106170125 -0.10700286 -0.07888523 -0.19404276
000250 3c ce 0b 3e d1 c9 0c 3e 43 8f 1d 3e 80 37 1c be
       0.13652891 0.13748862 0.15386681 -0.15255547
000260 9b ce 2b be d3 de 72 3d 69 67 12 be 6d 27 41 bd
       -0.16778032 0.059294533 -0.1429726 -0.04715674
000270 1c ac dd bd 01 3a d4 bd 16 1b 27 be 30 12 41 be
       -0.10823843 -0.10362626 -0.16318926 -0.18854594
000280 74 24 b0 bd 84 1f 47 be 04 cd a3 bd f7 51 33 be
       -0.08600703 -0.19445616 -0.07998088 -0.17511736
000290 60 d5 bf 3c 75 5b 2d 3d 99 6c 44 3d ee 23 04 3d
       0.023417175 0.04232355 0.04795513 0.032260828
0002a0 1f c0 49 be 90 1f e5 3d 5f 78 7a be 89 55 62 be
       -0.19702195 0.11187661 -0.2445998 -0.22102942
0002b0 ca aa 60 be 97 76 a0 bd de 69 69 3d 6d 20 02 be
       -0.21940151 -0.07835119 0.05698573 -0.12707682
0002c0 7d eb 87 bd 12 1e 84 bd ed 07 26 be 9e 82 d3 3d
       -0.06636713 -0.06451048 -0.16213961 0.103276476
0002d0 75 40 fc 3d cd d8 ed 3d 67 87 81 be 2f f9 93 3d
       0.12316982 0.11613617 -0.25298616 0.072252624
0002e0 94 31 af bd 3d 97 3e 3e 97 95 2b be c3 b6 0f be
       -0.08554378 0.1861238 -0.16756283 -0.14034562
0002f0 fc b3 c5 bd c9 4d db be 41 48 3e be 3d de 10 3e
       -0.0965347 -0.42832783 -0.1858225 0.14147277
000300 2d fe 30 3c 98 0c de bd 22 74 ba 3d d1 ec 12 3e
       0.010802788 -0.10842246 0.09104182 0.14348151
000310 7a f0 69 be e2 b9 1f 3e 54 4a d9 bd fe 54 90 3d
       -0.22845641 0.15598252 -0.1060988 0.07047461
000320 b7 8f 64 be 4e e4 46 be e4 0a 65 3d 07 f0 db 3d
       -0.22320448 -0.19423029 0.05591859 0.10739141
000330 c0 e1 44 3d 57 1b be bd 0a e6 21 3e a0 15 65 3e
       0.048066854 -0.092825584 0.15810409 0.2237153
000340 59 4b c6 3b 6b 9b 30 be e7 7f 86 3d 45 54 1b be
       0.0060514626 -0.17246787 0.06567364 -0.15168865
000350 08 68 23 be c0 19 33 be ee 55 75 be e1 ae b2 3d
       -0.15957654 -0.17490292 -0.23958561 0.08724762
000360 00 cf f6 3d a2 9c eb 3d b4 b8 6b bd e0 05 59 be
       0.12051201 0.11504485 -0.057549194 -0.21193647
000370 1d 37 f2 bd 56 69 15 be 47 08 35 be cc 3b 00 3d
       -0.11826918 -0.14590964 -0.17678939 0.031307027
000380 66 ba 60 be 0b 16 98 be a4 1e c7 3d 8a 4a ea bd
       -0.21946105 -0.29704317 0.09722641 -0.114399984
000390 00 88 05 3e 91 0c 52 3d 73 f0 11 3d 18 0e b3 3d
       0.13040161 0.051281516 0.0356297 0.087429225
0003a0 9d 20 5f bd 87 48 6d be fb 74 f5 bd 17 d2 38 be
       -0.05447446 -0.23172198 -0.11985203 -0.18048893
0003b0 d4 eb 9a 3d 62 b6 17 3e 5c 35 57 bd 8c a8 03 be
       0.07564512 0.14815667 -0.05254112 -0.12857264
0003c0 a3 db f3 bd 95 1e d8 3c 59 91 1e be 89 b0 09 3e
       -0.11907127 0.02638177 -0.15485133 0.13446249
0003d0 cf f7 f4 3d 87 78 81 bd 54 d4 97 bd 39 91 d6 3d
       0.11961328 -0.06321817 -0.07413545 0.10476918
0003e0 af a2 70 be 0a ba 80 3d c7 6a ed bd 43 c4 15 3e
       -0.23499559 0.06285484 -0.11592632 0.14625649
0003f0 21 c3 e3 3d 37 02 92 3d 83 68 07 3e c1 13 81 3d
       0.11121202 0.07129329 0.13223462 0.06302596

model.6.bias f4 [10]
000000 ec 53 c7 bd a6 6a 5e bc e9 8e a8 bd 1b ca 0a be
       -0.09732804 -0.013575232 -0.08230383 -0.1355366
000010 a3 be 4b 3d 26 04 98 3c 93 2c 58 bd 09 a9 03 3d
       0.049742352 0.018556666 -0.052776884 0.032143626
000020 11 2e fe 3c 4d ed 20 3c
       0.031027826 0.009822202
