model/mnist_MLP.pt (torch, 943789 bytes, 6 tensors)

model.1.weight f4 [256, 784]
00000000: cad3 e2bc 33d2 193c aed7 eb3c 3850 5ebc
00000010: 3fc5 073d a32a ff3c 78c0 e5bc 914d af3c
00000020: d80d e3bc 97f9 223c 9376 993a 631a b63c
00000030: ca1d f23b e514 ffbc 802c 19bb 3864 e8bb
00000040: 5a03 ee3c 5c82 05bc 70fe a9bc e82e f6bc
00000050: 43ba a43c e3b4 b43c 2ede ff3c b337 9f3c
00000060: 3ec1 97bc 8111 7abb 910e d0bc a7c4 cbbc
00000070: cc68 e8bc 9398 ccb9 8a3c cbbc ee3c c43c
00000080: 5a5c f43c ee81 3b3b 011e e53b 7232 323d
00000090: 32e5 f6ba 9434 3ebc 843e 0bbd 228f 3abd
000000a0: 7780 44bd c140 483c 439b b23d bb93 823d
000000b0: fa4e 853c 3694 afbc 8462 49bd 772f 0abd
000000c0: f7fd 09bd 91f4 9a3c 5c1a c63c 018e 3b3c
000000d0: cefa ad3c 5c74 c4bb 28f7 0d3d 9cbe 6b3c
000000e0: 9533 ab3c 856e d73c ee5a a4bc 7560 8d3c
000000f0: 5715 e43c 7ba4 16bd 1f12 50bd f39e a8bd
00000100: f93d dabd 2805 e5bd 3713 37bd bfde 90bd
00000110: 3547 f5bb c65d 253d b289 fe3d 2749 ad3d
00000120: 33f8 3f3d 197a 643c 5d6b 8fbc 8992 13bd
00000130: 6f94 5d3c d724 83bc ec9b 83bc 678f 9abc
00000140: afcd 52bc 0f32 37bd 1c4d 883c d33a c2bc
00000150: 4a65 68bb 25ff 273b 39fa a73d 6985 4a3d
00000160: 312c 0dbc 2303 27bd ba3c 1abd 2a95 12be
00000170: c88d 14be 6244 91bd 3d58 08be e928 febd
00000180: ead9 11bd 7aa0 9eb8 6073 eebd 1f41 fabc
00000190: e50e a0bc 49c7 02bd 0674 863c 79ca 89bd
000001a0: 4ff5 68bd 017d aebb 74e6 8b3d 0928 433d
000001b0: 8d77 24bb 8164 b63c c991 5cbd c130 babc
000001c0: 2ece f6bb 3eef 073c d30f 9b3d 5859 1fbc
000001d0: bd5e 22bc bee7 06bd 6ca2 85bc d5a6 5abd
000001e0: 0d19 b3bd d851 efbc e281 91bd 93e6 97bd
000001f0: 2a1c 27bd f8aa 84bd cf92 9bbd 3dee 64bd
00000200: 170e 363c 859c e03c c5bb b33d ca68 bc3d
00000210: ad6f ca3d ae81 e63d 985f c83d ab75 73bc
00000220: e2bd 3c3c 522b 573d ff25 063d 9081 0cbd
00000230: 35bc bbbc 7c2e 213c 5c01 513d 38df 043c
00000240: 707d 36bd affb 2b3d 80dc 093d 8db9 96bd
00000250: 604a d0bd 29c3 5ebd ef78 6bbd 662b 9cbd
00000260: e0ca 063d 9c4b 803d 8cda dd3c ba7a 13bd
00000270: f3a1 7dbc 5d65 86bd 3bf2 50bc 6140 5e3d
00000280: 66d5 723d 779d 273e 18e9 223e 273f d43d
00000290: 25da 873d cc38 1a3d 4934 f2bc 076b a8bd
000002a0: 5a9b acbc 1413 b5bb 32b4 3dbd 785f 1d3c
000002b0: d6c7 cabc aaaf 183d 0379 123d e046 45bd
000002c0: a733 16bd c139 53bd 664b a0bc 2ee0 0bbd
000002d0: 9df6 db3c a6fb ac3c fb28 e53c fb2a 6cbd
000002e0: d937 a6bd 1bb7 13bd fcf0 d53c 2e53 883d
000002f0: 450b ee3d 3677 c63d 5b02 ad3d 05d3 443e
00000300: 25ce 6f3d 7c1b b43d 8810 443d b2f1 a83d
00000310: 11eb 193d dad9 ad3d 40b3 efbc 91b5 02bd
00000320: 0747 aebd aac7 28bd 8e44 bdbc 8c5d 00bc
00000330: 3650 89bd 88d6 a9bd edf3 30bd f17e aabd
00000340: 020e ed3c a5cc bfbc 5314 3ebd 75ee 31bd
00000350: ce4d 84bd 8fe9 73bc 8058 c43c 8945 733d
00000360: 4799 7d3d a118 8b3d a8a5 cc3d 1099 e43d
00000370: 55e2 0f3d bf92 cfbd c1ab 4e3d f588 593d
00000380: b0de afbc 1360 113e 1670 1d3c 71b8 163d
00000390: 6d7a ca3d a1b1 ad3d b91e b23c df00 e83d
000003a0: 3b86 9ebc 9074 adbd db09 89bd 0ad7 82bd
000003b0: 4cf3 0ebd 9551 d3b8 492f 6f3c 12f7 afbd
000003c0: fa51 b8bd 8105 cc3a 23be 083d 49d7 81bc
000003d0: 782b 943d 4a23 173d 57a9 b73d 6b83 943d
000003e0: e7a4 f8bb 58ee 83bd e035 203e 8031 3e3d
000003f0: 8aca debc 240b 153e 57ba a13c a28a a03d
-0.02768888 0.009388494 0.028789368 -0.01356893 0.033147093 0.03114826 -0.028045878 0.021399291
-0.027716562 0.009947202 0.0011708312 0.022229379 0.007388805 -0.031137893 -0.0023372471 -0.007092025
0.029054333 -0.008148756 -0.020751208 -0.030051664 0.020108348 0.02205891 0.031233873 0.01943574
-0.018524762 -0.0038157406 -0.02539757 -0.024874045 -0.028370284 -0.0003902359 -0.02480914 0.023954835
0.029829193 0.002861138 0.006992102 0.04350514 -0.0018836616 -0.011609215 -0.033995166 -0.04554666
-0.047974076 0.01222247 0.0872102 0.063758336 0.01627301 -0.021432977 -0.049166217 -0.033736672
-0.033689465 0.018915446 0.024182491 0.011447431 0.021237757 -0.0059953164 0.034659535 0.014388707
0.02089862 0.026297817 -0.02006289 0.017257908 0.027842207 -0.036777955 -0.05079853 -0.08233442
-0.106563516 -0.11182624 -0.04469606 -0.070737354 -0.007485295 0.040372632 0.12428607 0.08461218
0.04686756 0.013945126 -0.01750725 -0.03602842 0.013524159 -0.016008778 -0.01606556 -0.018867208
-0.012866422 -0.044725474 0.016638331 -0.02370969 -0.0035460764 0.0025634256 0.08202023 0.049443636
-0.008616493 -0.040774476 -0.03765557 -0.14314714 -0.1450721 -0.07093121 -0.1331491 -0.12410147
-0.03560821 -7.563918e-05 -0.116431 -0.03054863 -0.019538352 -0.031928334 0.016412746 -0.06728072
-0.05687457 -0.00532496 0.06831065 0.047645602 -0.0025095672 0.02226472 -0.05384997 -0.022728326
-0.0075319028 0.008296786 0.075713776 -0.009725891 -0.009910283 -0.03293585 -0.0163128 -0.05338176
-0.087450124 -0.02921383 -0.07104851 -0.074170254 -0.040798344 -0.06477922 -0.07596361 -0.055891264
0.011111758 0.027418384 0.087760486 0.091996744 0.09884582 0.11255203 0.09783858 -0.014859597
0.011519881 0.052531548 0.03275108 -0.034303248 -0.022916893 0.009837743 0.051026687 0.00810986
-0.04455322 0.04198807 0.03365755 -0.0735961 -0.10170436 -0.054385338 -0.057488378 -0.07625465
0.03290832 0.06264421 0.02708175 -0.036005713 -0.015480506 -0.06562302 -0.012753065 0.054260615
0.059285544 0.16368662 0.1590923 0.10363608 0.06633405 0.037651822 -0.029565947 -0.08223539
-0.021070171 -0.005525956 -0.046314426 0.009605281 -0.024753492 0.0372769 0.035759937 -0.048163295
-0.036670353 -0.05156875 -0.019567203 -0.03414934 0.026850993 0.02111609 0.027973643 -0.057658177
-0.08116121 -0.036063295 0.026115887 0.0665649 0.11623243 0.096907064 0.08447715 0.19221123
0.058546204 0.08794305 0.047867328 0.08249225 0.037577692 0.084888175 -0.029260278 -0.031911436
-0.08509641 -0.04120604 -0.023103978 -0.007834803 -0.06704752 -0.08292872 -0.043201376 -0.083249934
0.028937344 -0.023413012 -0.0464061 -0.0434403 -0.064601526 -0.014887228 0.023967981 0.059392486
0.061913755 0.06791807 0.09992534 0.11162007 0.035127956 -0.101354115 0.050456766 0.053109128
-0.02146849 0.14196806 0.009609243 0.03679699 0.09886632 0.08481146 0.021743165 0.11328291
-0.019351115 -0.08469498 -0.06691333 -0.06388672 -0.034899995 -0.0001007646 0.014598676 -0.08592047
-0.09000011 0.0015565605 0.033384454 -0.015849726 0.072348535 0.03689889 0.08967846 0.072516285
-0.0075880173 -0.06441945 0.15645552 0.046433926 -0.027196188 0.14555031 0.019742174 0.07838942

model.1.bias f4 [256]
00000000: 41a8 aebc b6b4 68bc ec4a ba3c b6fd 2cbd
00000010: eefa 8fbd e217 39bd a515 763b c0ae e93c
00000020: 62ca 1fbd 6c10 b3bc 29e5 afbd c2db 323d
00000030: 1c32 173c d1b9 25bb 75f7 6d3a ce40 993d
00000040: 35ca 923c c2dc a8bb 774b 96bc 135b e43d
00000050: ce1d 80bb f327 9c3c ac3a de3d f959 e1bc
00000060: d7ec 843d 6930 93bc 0e58 913d 1f44 983d
00000070: 1da0 113d ae12 983b aa16 053d e663 c4ba
00000080: 07f1 bc3c 5ab7 4dbc 18b3 a33c 8317 c73d
00000090: 83fc 563d 8453 163d 4a0d c23d 1a93 433b
000000a0: 949f a83d d36d 6a3d 5349 683d 6a0b de3d
000000b0: 64bd 423d 2988 37bd f7ca 30bc d26c 333d
000000c0: cec1 adbc e553 2f3b abdf 41bd 2da1 993d
000000d0: ad93 cf3c 004b 15bd 19fd 533d 1e3e 11bd
000000e0: e9f7 a63d b090 433c 8a82 83bd fb7e 1ebd
000000f0: 3586 d13c 2950 a43c 533a f03d 4353 40bd
00000100: 1f8c f13d ec17 f93d d56b a33c bb16 d83c
00000110: 7209 9abc 57a1 c23b 7161 92bd 0436 53bc
00000120: 54b5 053d 0188 d23c 1da8 573c 4984 4c3d
00000130: cc68 13bd 0a18 bbbc 8ea5 a13d 78d9 65bb
00000140: 265b c63d 31cd bebc e3ac 1fbd 6933 cebd
00000150: 1931 8e3c 2b17 0f3e 62f5 1e3b 9213 1fbc
00000160: 5226 9a3d 6632 8f3d d3ae 41bd 576d 7d3d
00000170: 7d4c 1f3d d091 033b 3745 a33d 89d8 c7bb
00000180: 3d5d 333d d2de 173d d236 d5bc 686c a63c
00000190: 5e02 723a df3f 0abe 3e93 cb3c 9726 9b3b
000001a0: a909 aebc 14df 833d 72b1 9cbc 353b 373d
000001b0: f40a 46b9 7b36 89bd 4140 8fbd bd9c 953c
000001c0: 873a 793c dc4c 153c d190 5ebd ef62 e93d
000001d0: e544 9d3d 2852 d23c 3d9e 913d b98c 7c3c
000001e0: 1391 3fbc 114e 0f3e ec4a 393d f979 e53d
000001f0: 4a25 133d 2677 223d f65d b9bc 3c96 013d
00000200: b256 883c e5b3 55ba cd25 43bd 0d11 c13d
00000210: 393b a93c 252e 083e e897 673d 9063 813d
00000220: e9fa ab3b 30b8 443c 44e9 c73c c2c2 bdbc
00000230: a68a b23d 7a92 583d fc41 8dbd ab86 d0b9
00000240: a82d 17bd 2b0d d73b 1cdf 813d 1124 813d
00000250: 5fe1 443d 2ff9 953a f6e7 adbc 3f30 263d
00000260: cb58 a1bc 14f5 35bc be72 7a3d fdf1 7fbc
00000270: dfcd e8bc 8687 44bd 7c5e 23bd e0ae a9bc
00000280: 4293 5f3d 965f fb3c 4982 59bc f746 953d
00000290: d6df 0dbd bde8 32bd 4b92 2dbd f97f 3a3c
000002a0: 9006 0ebb 44d1 cebc 79e0 353d 2876 d63c
000002b0: a68e bfbd 494f 713d 9594 ca3c 187d 74bd
000002c0: 3a76 403d 1b40 2e3c 382c aa3c b946 87bc
000002d0: c11c a03d 7e9a ac3d 17c6 603c a3e3 df3c
000002e0: a763 0e3d 169c 44bc e424 f8bb 92ae 823c
000002f0: 259e 9cbd 440d 0cbd 38a9 b43d 0077 823d
00000300: cd86 de3a 4547 233e 9258 d4bc e701 a5bc
00000310: d4c6 a43c ed36 fdbc 49a4 723d b9e7 bfbc
00000320: aa51 d43d f698 9c3d 7740 93ba 3289 8d3c
00000330: 0e4a 6b3d 1356 2bbd e80e 1c3d 8d85 9dbc
00000340: aa4e 743d 3bff 3f3d 7e34 4b3d b26d 47bd
00000350: 9abc 933a 2f7c fd3c b673 be3d 74a4 1d3d
00000360: 3c6c 75bd ed3e acbc 5e56 aabc 25de 8abd
00000370: be40 a0bb 05b2 2d3d 9dad 503d 9ec8 67bd
00000380: af0d b5bd a8d8 803d f47d 153e facc 3fbd
00000390: e9f0 463d fac1 903c 8685 afbd eba8 d63c
000003a0: a3ce 0c3d 181c 583d 7bd5 1ebd 10be 643d
000003b0: d0e6 37bc 3017 5d3d 80bf 2bbd eb56 873c
000003c0: aa3c 653d df27 ddbc 3116 983d 4283 b4bc
000003d0: ce23 393c c576 613d 38ad 22bc d66f cabc
000003e0: 6cab 003e 10c7 e23c 8831 d7bc d226 f5bc
000003f0: 47a3 4abd eccd 80bd b111 a73c 8ce1 4e3d
-0.021320464 -0.014203241 0.022740804 -0.042234145 -0.07030283 -0.045188792 0.0037549522 0.02852571
-0.039011367 -0.021858416 -0.08588631 0.04366661 0.009228256 -0.0025287757 0.00090777065 0.07483064
0.017918685 -0.0051532695 -0.018346531 0.111501835 -0.003909803 0.019062018 0.108510345 -0.027508723
0.06490486 -0.01796742 0.07096873 0.07434868 0.035553087 0.0046408987 0.032492317 -0.0014983385
0.02306415 -0.012555921 0.01998286 0.097212814 0.052486908 0.03670074 0.09475191 0.0029842318
0.08233562 0.057233643 0.056710552 0.10842021 0.0475439 -0.044807587 -0.010790578 0.04380495
-0.021210577 0.0026752886 -0.047332447 0.07501445 0.025338972 -0.03644848 0.051755045 -0.03545963
0.08152754 0.011936352 -0.06421383 -0.038695317 0.02557669 0.020057755 0.117298745 -0.046954405
0.11794304 0.12162766 0.01994888 0.026378026 -0.018803332 0.0059396434 -0.07147492 -0.012891296
0.03264363 0.025699617 0.01316264 0.049930844 -0.035988614 -0.022838611 0.07892905 -0.0035072248
0.09685354 -0.023291202 -0.038983237 -0.100683995 0.017357396 0.13973682 0.0024255146 -0.009709256
0.0752684 0.069920346 -0.047285866 0.061871853 0.038891304 0.0020075925 0.07972186 -0.006098811
0.04379009 0.037077732 -0.026027117 0.020315364 0.000923192 -0.13500927 0.024850484 0.004734825
-0.02124484 0.06439033 -0.019127581 0.0447342 -0.00018886832 -0.066998444 -0.06994677 0.018263215
0.015211708 0.009112563 -0.054337326 0.11395823 0.07679156 0.02567394 0.0711026 0.01541441
-0.011692303 0.13994624 0.045237467 0.11204905 0.035924233 0.03966441 -0.022627812 0.031637415
0.016642902 -0.00081521115 -0.04764347 0.0942708 0.020658122 0.13298853 0.056541353 0.06317818
0.0052484167 0.012006804 0.024403222 -0.023164157 0.08717851 0.052874066 -0.06897351 -0.00039773187
-0.036908776 0.006562849 0.06341383 0.06305707 0.048066493 0.001144206 -0.021228772 0.040573355
-0.01969566 -0.011105794 0.061144583 -0.015621659 -0.02841848 -0.047980808 -0.03988503 -0.02071327
0.054583795 0.030685227 -0.013275691 0.07288926 -0.034637295 -0.043678988 -0.042375844 0.01138305
-0.0021671392 -0.02524627 0.044403527 0.026179388 -0.0935338 0.058913503 0.024729053 -0.05968961
0.04698775 0.010635401 0.020773038 -0.016513215 0.07817984 0.084279045 0.013719103 0.027330225
0.034763005 -0.012000104 -0.007572757 0.015952382 -0.07647351 -0.03419234 0.088213384 0.06370354
0.001697743 0.15945156 -0.02592114 -0.020142509 0.02011434 -0.03090998 0.059238706 -0.023425924
0.10367139 0.076463625 -0.0011234422 0.017277334 0.05744367 -0.041830134 0.038100153 -0.019228721
0.059645332 0.046874266 0.049610607 -0.048688598 0.0011271418 0.030943004 0.09299414 0.038486913
-0.059917673 -0.0210261 -0.020793136 -0.06780652 -0.0048905304 0.0424061 0.05094682 -0.056587808
-0.088405006 0.06291324 0.14598829 -0.04682634 0.048569594 0.01767062 -0.085703894 0.026203593
0.03437675 0.052761167 -0.03877781 0.05584532 -0.011224464 0.05397719 -0.041930676 0.016520938
0.055966057 -0.026996551 0.07426108 -0.022035245 0.01130004 0.055044908 -0.009928994 -0.02471153
0.12565392 0.027682811 -0.026268736 -0.029925738 -0.04947212 -0.062892765 0.020394178 0.050508067

model.3.weight f4 [128, 256]
00000000: 9c31 1f3d 1f6a a53d e0d3 1cbd ed5a e7bc
00000010: 5074 d73c f82e 82bc f34f 33bc 70a7 363d
00000020: 26ea 1c3d 64fa 0b3c b874 d03d 7181 873c
00000030: 7578 7bbd 9d4a f73d 75f2 5dbd 3f2b 1abe
00000040: 14b6 19bc 7009 1f3e f34d 453d 9298 3e3c
00000050: 6dc9 653d aa48 14bd d724 74bd ceda 7d3c
00000060: 7002 bdbd 5160 a23c bdd7 d63a b3c0 063d
00000070: cd77 b9bb 5d7e c4bd e54d 88bd beb1 bbbd
00000080: 1a3c e23d ada5 87bc bfa0 623d f89e d0bd
00000090: cbc7 303e 02dd 10bd 9a9a 83bd 21af fb3d
000000a0: 1a5b 12bb 15e1 3fbd e5ad 543d 8fb5 bbbd
000000b0: 6626 e93d 92a0 5d3d fd7a 31bc d00e 45bd
000000c0: 8e19 983d 79a9 b33c 945c 14bd ae58 2ebd
000000d0: 167d bf3d e889 d73c 4ab0 8abd 6be5 ab3c
000000e0: 2f14 09bd b8ab 46bd 6ebd 163e 209f e9bc
000000f0: a281 bb3c 7b7d 14bd 4313 23bc cd78 913c
00000100: 4729 0fbd cea0 b6bd c36d 58bd ba8f 16bc
00000110: 2fbd 2bbe 4593 a73d 58cc 8dbd 5bd2 1f3d
00000120: 7841 b13e 6752 8dbd 7600 cb3d 9462 9d3d
00000130: be60 a43d d0e9 423c 46f6 213d a5d4 3c3e
00000140: a59e de3d fdff e73d 5185 0bbd c32f bb3c
00000150: b399 62bd 0d64 0dbe 739d 37bc 4a1f 42bc
00000160: fe2c a1bc 08c6 8fbb 4a8e 153e ec5a 8ebc
00000170: d9b5 103e 8b81 b53d 3368 7e3d bb43 9a3d
00000180: 9d8b a53c ff6a fcba e181 2c3d 874a 7e3d
00000190: f769 b33d 63e1 083c bfa8 873c 33f1 8a3d
000001a0: e0c1 333e 8998 173e 5efb 2e3b f175 b03d
000001b0: 62b1 d03d 22c0 53bd 2224 ac3d 4b48 83bc
000001c0: 5639 843d 63db 1c3e a6d4 813e 347e d5bd
000001d0: 8fb3 ffbc 6f68 29bd 42c9 c4bc bec2 c3bc
000001e0: 124d 873c 19ed 153c a22e 503d e7ad bcba
000001f0: e2b6 df3c 4060 183e d38f ea3d 8ff5 273e
00000200: 937c 2bbc 039b ea3c 1b2d 95bc 8119 26bd
00000210: e1d0 a33a 7a25 4cbc 7f46 3b3c 7694 913d
00000220: 6746 b03d 4f6b 173b 35c8 b2bc f5ef d2bd
00000230: 423f 913d 4ef0 133e 3083 e7bd 6add c43d
00000240: d953 7fbd c7a2 333b 9f9a 52bd fde7 46bc
00000250: 0aaf 6a3d 8d1b bf3c bc4b 00bc 0e4e 2cbb
00000260: 1dae eabc a723 e23d 4d3e c2bd 5f70 c8bd
00000270: c126 003e 1d42 1a3d 4004 da3d 7cf6 333c
00000280: 22ea 283e 474b 24bd ee0f d2bb 05f7 b93c
00000290: a50c 3f3e 1602 b03d 1950 d83d c43e 303d
000002a0: 146c 5a3d d84e 073d 4adc c039 e409 bfbd
000002b0: f75e 68bd d34d afbd 5685 873d ae2d dbbc
000002c0: 53db 933c 5eff 2f3e 99e1 15be 4392 0a3d
000002d0: 5105 f8bc 1d79 4f3c 81f1 0bbd b6b7 503e
000002e0: ab79 a73c 4188 713e 8fe2 fcbd 9296 cbbc
000002f0: 7560 573d bd2f 9d3d c187 8d3c 95cc d0bd
00000300: 1217 51bc e910 90bd 9ae4 c9bd f112 cfbc
00000310: cb0a 9d3c ba67 943d e0a4 4e3d cbbc d63d
00000320: d02a cbbd 2627 263d 2d16 70bc 7a8f 2e3d
00000330: 927d bc3c 8ea0 6abd 1ea5 9a3c 49ff d3bc
00000340: 16bf a33d aa29 8c3d 157d 1cbd 6666 7a3d
00000350: 250e 9a3d 031f dd3d da7f a4bb 0ef6 cd3c
00000360: 82ef 443d ecc3 27bd 16c0 16bc 3189 df3c
00000370: 777f cf3c bb5c b2bd c05d 09be dfd7 423e
00000380: aa14 963d 7a57 5a3e 2a6c 25be 31f4 3ebd
00000390: 0c81 d1bc 6771 1dbc 4181 443d b892 87be
000003a0: bbad bebc fd77 b8bc 5e35 c63d 0d3c 773d
000003b0: 9239 f23d d6e3 c2bd 5b67 3d3d 104e 123d
000003c0: 8eff ffbb 3c93 77bd 98b6 bcbd 2577 85bc
000003d0: 23b0 893c 7938 013e 5807 53bc 6e77 033d
000003e0: ffa0 5abc 4574 ee3c 017b ae3c 5f45 153e
000003f0: 1fbd 5a3d 659f c83d 5743 613c bb22 ae3b
0.03886567 0.080768816 -0.038287997 -0.028241599 0.02630058 -0.015891537 -0.010944354 0.044593275
0.03830924 0.0085435845 0.10178512 0.016541215 -0.061394174 0.12074778 -0.054186303 -0.1505556
-0.00938179 0.15530944 0.04817004 0.011633055 0.056100298 -0.03620211 -0.059605446 0.015494062
-0.092289805 0.019821318 0.0016391199 0.032898616 -0.0056600333 -0.095944144 -0.06655482 -0.09164761
0.1104662 -0.016558493 0.05532908 -0.10186571 0.17263715 -0.03536702 -0.06425972 0.122892626
-0.0022332133 -0.046845514 0.05192365 -0.09165489 0.11384277 0.05410821 -0.010832545 -0.04810983
0.07426749 0.021931397 -0.036221102 -0.04256504 0.0935003 0.026310876 -0.06771906 0.020983418
-0.033466514 -0.048503608 0.14720699 -0.02851826 0.022888962 -0.03625248 -0.009953323 0.017757798
-0.034951475 -0.0891739 -0.052839052 -0.0091895405 -0.16771387 0.08182386 -0.06923741 0.03901897
0.3462026 -0.069004826 0.09912197 0.07684818 0.080262646 0.011896566 0.039541505 0.18440492
0.10870103 0.11328123 -0.034062687 0.022849923 -0.05532236 -0.13807698 -0.011206972 -0.01184828
-0.019674774 -0.004387621 0.1460506 -0.01737734 0.1413187 0.08862599 0.06211109 0.0753245
0.020208174 -0.0019257962 0.04211605 0.062082794 0.087604456 0.008354518 0.016559957 0.06784286
0.17554426 0.14804281 0.002670012 0.086162455 0.10190083 -0.051696904 0.08405329 -0.016025683
0.064562485 0.15318064 0.2535755 -0.10424462 -0.03121355 -0.04135936 -0.024021748 -0.023896571
0.016516242 0.009150767 0.050825723 -0.0014395089 0.027308885 0.14880466 0.114532135 0.16402267
-0.0104667125 0.028638368 -0.018209985 -0.040551666 0.0012498164 -0.012460107 0.011430382 0.07108395
0.08607178 0.0023104732 -0.021823982 -0.102996744 0.070921436 0.14447138 -0.11304319 0.09612544
-0.062335823 0.0027410255 -0.05141699 -0.012140271 0.057295837 0.023328567 -0.0078305565 -0.0026291641
-0.028647477 0.110419564 -0.09484539 -0.09787058 0.12514783 0.037660707 0.10645342 0.010984059
0.16495565 -0.040110853 -0.0064105904 0.022700796 0.18657167 0.08594148 0.105621524 0.043028608
0.053325728 0.033034176 0.00036785222 -0.09328058 -0.05673119 -0.08559766 0.06617229 -0.02675518
0.018048918 0.17187259 -0.1463684 0.033830892 -0.030275973 0.012663153 -0.034165863 0.2038258
0.020443758 0.23587133 -0.123479 -0.024852071 0.052582223 0.07675121 0.017276647 -0.10195271
-0.012761848 -0.07034475 -0.098580554 -0.025277587 0.019170186 0.07246347 0.050450206 0.10485228
-0.09920275 0.04056468 -0.014653725 0.0426173 0.023009095 -0.057282023 0.018877562 -0.025878565
0.07995431 0.06843884 -0.038205225 0.06113281 0.07522229 0.10796931 -0.005020124 0.025141742
0.048079975 -0.04095833 -0.00920107 0.027287098 0.025329335 -0.08709093 -0.13414669 0.19027661
0.0732816 0.21322432 -0.16154543 -0.046619598 -0.02557423 -0.009609557 0.04797483 -0.26479125
-0.0232762 -0.022518152 0.09678148 0.060360003 0.11827387 -0.095161125 0.046241146 0.035718977
-0.007812447 -0.060443148 -0.092145145 -0.016292164 0.016807621 0.12619199 -0.012880169 0.03209632
-0.0133440485 0.029108176 0.021298887 0.14577244 0.053403016 0.09796027 0.013748965 0.005314199

model.3.bias f4 [128]
00000000: 6bd8 f63c fc6b c63d d1c7 0f3d b84f 503d
00000010: a7fc 223d 073f ecbb 6965 a33d 648a a6bd
00000020: 9afe 5d3c 20a8 153d c19c 6d3c c85b 6b3c
00000030: 72cc 84bc 2d5d f63c d516 943d 01db 193d
00000040: c373 293c 524e d23d eacb 2e3d 380b 583d
00000050: f9ed cdbd 5995 623d 1371 8e3d e2bb 47bd
00000060: 2c10 0a3d 31c9 af3d 2ec1 5dbd 7cd1 eabb
00000070: 5673 c53d 072e a83a 4100 bf3c d255 8c3d
00000080: 9af0 f63c 2928 f63c 2b74 773c 0201 85bc
00000090: b864 903d c249 223d 4dbb 6abd 86ec b13d
000000a0: 5014 583d 1d80 92bd 0eba 5b3d 750e f2bc
000000b0: efe8 793c 7206 92bc b4db f23d f228 9e3d
000000c0: 31e7 9b3d e128 8e3d c083 6c3d 3b54 e53c
000000d0: 5f33 013e beb3 2c3d cae4 97bb 3d2e 50bd
000000e0: e004 193d 8e07 903d 9cb9 093e b416 58bc
000000f0: a52b 833d 2153 753c 4d2b daba fa91 ea3c
00000100: 83f1 54bd 4323 033d edbf 0b3c bdcb 633d
00000110: 0209 15bd 974a 693c 339b 973d 5184 26bd
00000120: 693e b93c c330 09bc 71ab d73c 6ec7 0b3e
00000130: c5ab e63d 19c6 f13d b911 88bd 13af 073e
00000140: 6768 9b3d a5d1 9d3d 7e0b a7bb 152a 083d
00000150: 31db 4d3d a2d6 873d 2f73 95bd dede 6c3d
00000160: efd8 b83c 394f ecba 9413 cc3c 4a1e c13c
00000170: d0f2 bf3c 75a1 8e3d 04b7 fb3c 5e0d 0cbd
00000180: d4a5 63bd 8cd5 573d adff 8f3d d3a7 06bc
00000190: d92f 94ba bd1f 20bd 8fb9 403d 8ea7 363c
000001a0: fd86 8bbd c791 df3d 9737 30bd d9cb 643d
000001b0: 607a c1bc 79b4 c03c 2d40 9d3d 81ca 813d
000001c0: 389a 403e d301 da3d f97f f53c 35d3 ab3c
000001d0: d231 3b3d 1542 37bd dfe7 8c3c ecb0 8a3c
000001e0: ba05 bf3d aae6 8a3d 7af8 c1bc 1b3b c53c
000001f0: 2b8a c23c ad15 5b3d 3f0b 54bd 6a17 1f3d
0.030132493 0.09688565 0.03510267 0.050857276 0.03979173 -0.007209662 0.07978327 -0.08131865
0.013549471 0.03653729 0.014502705 0.014365144 -0.016210768 0.030073727 0.07230917 0.037562374
0.010342541 0.10268845 0.042674936 0.052745074 -0.10055155 0.05531821 0.06955161 -0.048763163
0.03370683 0.08583296 -0.05413931 -0.0071660858 0.09641139 0.00128311 0.02331555 0.068523064
0.030144025 0.030048447 0.01510338 -0.016235832 0.070504606 0.039621122 -0.05730753 0.086876914
0.052753747 -0.07153342 0.053644232 -0.02954791 0.01525329 -0.017825339 0.11858311 0.077226534
0.07612456 0.06941391 0.057742834 0.027994266 0.12617253 0.042163603 -0.004635428 -0.050825346
0.037358165 0.07032691 0.1344971 -0.013189007 0.06404809 0.014973433 -0.0016644985 0.02863406
-0.051988136 0.03201605 0.008529645 0.05561422 -0.036385544 0.014238975 0.07402649 -0.04065353
0.022612767 -0.008373442 0.026326867 0.13650295 0.11263231 0.11805362 -0.06644005 0.1325038
0.075882725 0.07706002 -0.0050978055 0.033243258 0.050257865 0.06632735 -0.0729736 0.05782973
0.02256438 -0.0018028981 0.02491168 0.023574013 0.023431212 0.06964389 0.030726917 -0.034192435
-0.055578068 0.05269389 0.07031188 -0.008218723 -0.0011305764 -0.039092768 0.047051962 0.011148347
-0.06812856 0.10916477 -0.043021765 0.055858467 -0.023617923 0.023523556 0.07678256 0.06337453
0.1880883 0.10644879 0.029968249 0.020974735 0.04570181 -0.044740755 0.017200409 0.016930066
0.09327264 0.06782277 -0.023678053 0.024076035 0.023747524 0.05348747 -0.051768538 0.03884069

model.6.weight f4 [10, 128]
00000000: 5845 25be 16dd 2abe 6d43 29be 2914 dd3d
00000010: 6d0a d5bd e953 b3bb cc10 4fbe a517 9e3d
00000020: 04af 9b3d 51ab a9bd f711 5bbe 2df1 8b3c
00000030: 4f01 99be 9653 0ebe a436 313d a9c9 62be
00000040: 6a09 823d 38bc 3ebd 908b 1fbe b74a 89be
00000050: b2e9 c7bc 60f7 eabd 45e7 003e cd36 e8bd
00000060: b4e4 0c3e 885b 6abc 62b3 debd 5f1d b93a
00000070: 337e 20be b995 55be 3c53 17be b5d1 143e
00000080: b902 35be 4f2f da3d f285 cb3d ec66 9e3d
00000090: 8152 eb3d 5410 573c 0a5a 8d3c 3622 6fbe
000000a0: c7de 11be abd7 aebd c0e4 4abe f434 49be
000000b0: 38c6 293e 269c 21be 5dc1 0ebe deac bc3d
000000c0: 55f3 e33d efcc 09be 7349 1ebe a10e 60be
000000d0: 1876 f73a 612c 71be 4159 fcbb 366d 5bbd
000000e0: b62b fc3d 6079 2dbe f729 45be 99fd 413e
000000f0: f905 9ebc 8fb0 cebd 0521 0c3e 7181 083e
00000100: 50b6 f43d fc9e 10be e75c bd3d 2c54 d7bd
00000110: 8aff bbbd efe1 3f3e bc8c cdbd 3aa6 ae3c
00000120: 88db d93d e4fc 99bd 6d8d b3bd b225 ac3c
00000130: 891a 40be 7d0f 5bbe 0e00 8cbd 9db1 cf3d
00000140: d0fb 913d dd29 9ebd 3829 973d e1c1 ce3d
00000150: e3ea 8bbe 66e8 65bd 5ef3 ef3d 6109 e03d
00000160: bff2 51be baaf 853d e1a6 f8bc 08f0 a4bd
00000170: 1c24 693c 7d50 8d3d 52e4 a43d 79e9 9b3d
00000180: a51a e5bd 35d3 113d d3b9 2dbe 8a29 ba3d
00000190: 3d7c f83d 9d44 ffbd 1791 81bd 504b 293e
000001a0: 0626 94bc 43c4 c73d b69f a73d 357c e8bd
000001b0: 1cb1 d93d ac1e 023b bd7d 313d 6254 a33d
000001c0: bab6 1bbe dba7 4cbe a435 77be 2945 1ebe
000001d0: ddf0 36be 9799 463e 9194 123e aca2 233e
000001e0: 33f0 073e f0a0 123d 0dc6 d03d 0292 49bd
000001f0: 9fff 3dbe bc27 ddbd 730e d8bd 61a8 63bd
00000200: d702 f43d 7155 30be 029f 993d 3a22 2a3e
00000210: 6409 87bd 24fe 74bd e06b bebd ac8c 25bd
00000220: d4c4 71be 5ba3 e4bd 2e2d c8bd 749d 7fbd
00000230: 096c fd3d b9c5 013e a70a 073d b36f 233e
00000240: 0140 813d e87a 5a3d f06e fcbc 9d22 f93d
00000250: 8792 5cbd cf69 c5bd c19f b3bd ec8a 7dbe
00000260: 18e8 11be 9d41 ba3d d993 013e 9f36 4b3d
00000270: 9d32 b13d 473e c93d f89b 3abe 66e0 30be
00000280: fdfe be3d bcb4 4bbe 4fc2 21be c15f 69be
00000290: c12c 83be 74d0 263e 8503 be3d f478 203e
000002a0: c662 babd bf4d 9fbd 3173 16be 6eaa 2c3d
000002b0: a25b 403e 38b9 ef3d 341f 243d 520e 0bbe
000002c0: 094c cbbd bbee fbbc 3e29 ebbc 8503 08bd
000002d0: e296 90be 188f 313e 72bd c0bc c768 8b3d
000002e0: 3f85 1bbe 9469 12bd 810c d1bd 6050 01bf
000002f0: 1aaf c6bd 0a2a 6fbe 8357 e3bd e234 e23d
00000300: aaf0 bf3d 8a49 d33d 1c5a dcbd 628d 1bbe
00000310: fc5f ed3d bd01 8fbd bc0b f5bd 359c 3dbc
00000320: 3bef 733d 274d 51be eb6e 433e b17d 16be
00000330: 5dad 83be fce9 9cbd 3b75 213d 9351 8f3d
00000340: 44a5 29be 2d48 453d 0c41 99bd e3b5 fc39
00000350: 6667 023e c52a 9e3d 2204 703d 38fb bcbd
00000360: 1a55 3c3d d15b 8d3d 0951 163e 3ef9 883d
00000370: f501 cdbd 9578 e53d e1f8 84be 6fcc 003c
00000380: 4bc6 49be d50a 16be 41e1 ed3d 2fe8 6dbe
00000390: 297d 18be 2c65 2dbe 3207 853c 7112 9a3c
000003a0: 9698 40bc 64b9 16be 6592 863c c406 9b3c
000003b0: 6627 bcbe 6307 bebd 5adc 843c 109c a9bd
000003c0: d68f 4fbe cd1d 813c 95f7 b2bd 4c33 003e
000003d0: 9261 373e 288a 13be e184 0d3e 0a39 c13c
000003e0: e3fe 06be 04ed 12be 2e9a 18bd 072f 223e
000003f0: 83ba 0b3e 65b0 c53c 060d 1d3d 24a6 29bd
-0.16139734 -0.166859 -0.16529627 0.10794861 -0.10402379 -0.0054726494 -0.20221251 0.077193536
0.07601741 -0.08284629 -0.21393572 0.017082775 -0.2988381 -0.13899073 0.043265 -0.2214724
0.06349452 -0.04656622 -0.15580583 -0.26814815 -0.024403427 -0.11472964 0.12588222 -0.113385774
0.13759118 -0.014304049 -0.10874058 0.0014123133 -0.15673141 -0.20857896 -0.14777845 0.14533122
-0.1767682 0.10653555 0.099376574 0.077344745 0.11490346 0.0131264515 0.017254848 -0.23352894
-0.14245139 -0.08537229 -0.19813824 -0.19649106 0.1657952 -0.15782222 -0.1394095 0.09212659
0.11130396 -0.13457082 -0.15457706 -0.2188058 0.0018879799 -0.23552085 -0.0077010696 -0.05357095
0.12313025 -0.16940832 -0.1925429 0.18944396 -0.019289957 -0.1009227 0.13684471 0.13330628
0.11948836 -0.14123148 0.09246235 -0.105141014 -0.091795996 0.1873853 -0.100366086 0.021319497
0.106375754 -0.07518938 -0.08767209 0.021014068 -0.18760122 -0.21392627 -0.06835948 0.10141299
0.071281075 -0.077228285 0.07380909 0.10095573 -0.27327642 -0.056129836 0.117163405 0.10939289
-0.20502757 0.06527658 -0.030353012 -0.08053595 0.014229801 0.069001175 0.08051361 0.07612891
-0.11186723 0.035601813 -0.16965418 0.09089954 0.121330716 -0.12464259 -0.06326502 0.16532636
-0.018084537 0.09754231 0.08184759 -0.113518156 0.10629484 0.0019854708 0.043332804 0.07975079
-0.15206423 -0.19985907 -0.24141556 -0.1545607 -0.1786532 0.19394527 0.14314486 0.15980023
0.13275222 0.035798013 0.10194025 -0.04921151 -0.18554543 -0.10798594 -0.10549631 -0.0555805
0.11914604 -0.17220093 0.075010315 0.16614619 -0.06593588 -0.05981268 -0.09297919 -0.04041736
-0.2361024 -0.1116397 -0.09774242 -0.06240602 0.12374122 0.12673081 0.032969143 0.15960579
0.06311036 0.05333987 -0.030814618 0.12164805 -0.053850677 -0.09639322 -0.08770705 -0.24760026
-0.14248693 0.09094546 0.12654056 0.049612638 0.08652232 0.098263316 -0.1822356 -0.17273101
0.09325979 -0.19893163 -0.15796779 -0.22790433 -0.25620082 0.16290456 0.09278015 0.1567114
-0.09100871 -0.07778501 -0.1469238 0.042154722 0.18784955 0.117052495 0.04006882 -0.13579682
-0.09926612 -0.030753484 -0.02870619 -0.03320648 -0.28240114 0.17339742 -0.023527835 0.06807094
-0.15187548 -0.03574522 -0.10207463 -0.5051327 -0.09701367 -0.2335588 -0.11100676 0.11045243
0.09372075 0.10316761 -0.107593745 -0.15190652 0.11590573 -0.069827534 -0.11965129 -0.011572887
0.05955432 -0.20439588 0.1908528 -0.14696385 -0.25718203 -0.076618165 0.03941844 0.06997981
-0.1656695 0.048164535 -0.0748311 0.00048200702 0.12734756 0.077230014 0.05859769 -0.09227604
0.045979597 0.06902278 0.1467935 0.06688164 -0.10010139 0.1120464 -0.2597113 0.007861241
-0.19704549 -0.1465257 0.116152294 -0.23233102 -0.14891495 -0.16933125 0.016238783 0.018807622
-0.011755129 -0.14719158 0.016427228 0.018924125 -0.3674881 -0.09278753 0.016218353 -0.0828172
-0.20269713 0.01576128 -0.08738629 0.12519568 0.17908314 -0.14408171 0.1382022 0.023586769
-0.13183169 -0.14348227 -0.037256412 0.15838252 0.13645367 0.024131963 0.0383425 -0.04141821

model.6.bias f4 [10]
00000000: ab6d 0abe 9b81 c7bc c630 523c d2f0 d5bd
00000010: 6cc2 613c 6e5d b53c 2fca 9d3b 4491 a2bd
00000020: 976a f33d e32f bb3c
-0.13518398 -0.024353793 0.012829011 -0.104463235 0.013779264 0.022139277 0.004815362 -0.079378635
0.11885565 0.022849983
